data/PN-model-ours/pretrain-model.pt (torch_old, 28607 bytes, 6 tensors)

fc1.weight f4 [64, 29]
0	0xbefd23b5	-0.49441305
1	0xbe1705c3	-0.14748292
2	0x3d322d29	0.0435001
3	0x3c4c75cc	0.012479257
4	0xbdae26f0	-0.085035205
5	0x3c7b5ac7	0.015341467
6	0xbf3418b9	-0.70350224
7	0x3f42e565	0.7613128
8	0x3f54a81b	0.8306901
9	0xbe7b6e6f	-0.24553846
10	0xbdb2d3c1	-0.08731795
11	0xbcec938b	-0.028878948
12	0x3b3e3785	0.0029024791
13	0x3d39c09f	0.045349713
14	0xbd867e52	-0.065670624
15	0x3d9ce50b	0.07660874
16	0xbbe2f959	-0.006926697
17	0x3d2e7aa7	0.04259744
18	0xbdcfa7b5	-0.101394095
19	0x3bfb3805	0.00766659
20	0xbdfd095a	-0.12355299
21	0x3e16d3e6	0.1472927
22	0x3d7ddd46	0.0619786
23	0x3d4fef33	0.050765228
24	0xbeafb799	-0.3431976
25	0x3d521ff4	0.051300004
26	0xbd393d73	-0.04522462
27	0x3d1a1848	0.037620813
28	0x3e43a402	0.19105533
29	0x3e1a9d5b	0.15099089
30	0x3d256421	0.040378693
31	0xbee7977d	-0.45232764
32	0x3e523e08	0.20531476
33	0x3de1efc9	0.110320635
34	0xbe8e0519	-0.27738264
35	0xbc53bb08	-0.01292301
36	0x3ea3c043	0.31982622
37	0xbf295234	-0.66141057
38	0x3ddea9b1	0.1087221
39	0x3b73b6aa	0.0037187734
40	0xbe6fb07a	-0.23407164
41	0xbdb9603d	-0.09051559
42	0x3db801af	0.08984696
43	0x3d742723	0.059607636
44	0xbe5974d2	-0.2123597
45	0x3e5da83c	0.21646208
46	0x3dbdcf97	0.0926811
47	0xbe064d88	-0.13115513
48	0xbe1b9f16	-0.15197405
49	0x3e286d14	0.1644786
50	0x3c77ad31	0.015116976
51	0xbd660398	-0.05615577
52	0x3e8ff609	0.28117397
53	0xbe70945d	-0.23494096
54	0x3e0c2eac	0.13689679
55	0x3db04dda	0.08608599
56	0xbe8ad6ed	-0.271171
57	0xbd69af2e	-0.05705183
58	0x3eb37b0d	0.35054818
59	0xbe8f8def	-0.28037974
60	0x3ca574a0	0.020197213
61	0x3e1a0322	0.15040258
62	0xbeb7b711	-0.35881856
63	0xbe36ff27	-0.1787077
64	0x3e8d1952	0.2755838
65	0x3e7e770e	0.24850103
66	0x3dce5e56	0.10076587
67	0x3eac2806	0.33624285
68	0xbfd88199	-1.691455
69	0x3ccda685	0.025103817
70	0x3d816c2b	0.063194595
71	0x3da52868	0.080643475
72	0x3da9989d	0.08281062
73	0x3c0c21fb	0.008553023
74	0x3d433596	0.047658525
75	0x3d916d41	0.07100917
76	0xbd4cecfb	-0.05003069
77	0xbc6053da	-0.013691867
78	0xbe405885	-0.18783768
79	0x3e1dd944	0.15414912
80	0xbd422a10	-0.047403395
81	0x3c13feb7	0.009032897
82	0x3e12f76e	0.143522
83	0xbd21dfdd	-0.039520133
84	0xbe096129	-0.1341597
85	0x3d0bbf3b	0.03411792
86	0x3d953e38	0.07287258
87	0xbe02fd86	-0.12792024
88	0xbdf1273d	-0.11775062
89	0xbe1e0283	-0.15430646
90	0xbdc82b27	-0.09773856
91	0xbe2fb892	-0.17160252
92	0x3ebc0605	0.36723343
93	0xbe9527d4	-0.2913195
94	0x3ea3c34c	0.31984937
95	0x3c90db55	0.01768271
96	0x3c8d384c	0.017238759
97	0x3d8c1893	0.06840625
98	0xbe6a9f55	-0.22912343
99	0xbcc16e6a	-0.02361222
100	0xbe5014f6	-0.20320496
101	0x3d9e63b0	0.07733858
102	0xbe815405	-0.25259414
103	0x3e8dc8d2	0.27692276
104	0xbde3e5fd	-0.11127851
105	0xbe766b95	-0.24064477
106	0xbd3a82f1	-0.04553503
107	0x3e6668d0	0.2250092
108	0xbe76d88b	-0.24106042
109	0x3df6f910	0.12059224
110	0x3e5e41b9	0.21704759
111	0x3ca263b1	0.019822927
112	0xbda5ff52	-0.08105339
113	0xbd6854af	-0.056721386
114	0x3de13e0d	0.10998163
115	0x3df28559	0.1184184
116	0xbc4da833	-0.012552309
117	0xbe6c829b	-0.23096697
118	0x3c9c4e91	0.019080432
119	0xbc5b3879	-0.013380163
120	0xbe9a74cf	-0.30167243
121	0x3da965cf	0.082713716
122	0x3ede482f	0.43414447
123	0x3d471a1a	0.048608877
124	0xbdf63862	-0.12022473
125	0xbdad4bc2	-0.08461715
126	0x3d44d7a7	0.048057225
127	0x3db76ae5	0.089559354
128	0x3dd336e7	0.10313206
129	0xbed3ce3f	-0.4136829
130	0xbe981ac1	-0.29707912
131	0x3e9d7b42	0.307581
132	0x3ebe2429	0.37136963
133	0xbe82b741	-0.25530437
134	0xbef042f1	-0.46926072
135	0x3e8bed6c	0.27329576
136	0x3dfee3e4	0.124458104
137	0xbe0e249a	-0.1388115
138	0xba800da8	-0.0009769695
139	0xbd2145bc	-0.039373145
140	0xbda3c8af	-0.07997262
141	0xbd27731f	-0.040881272
142	0xbe97518f	-0.29554412
143	0x3d16c86a	0.036812223
144	0xbc5ad01a	-0.013355279
145	0x3eab5f75	0.33471265
146	0xbeabf540	-0.33585548
147	0x3d35796f	0.04430526
148	0xbf01f1fa	-0.5075985
149	0x3ecde10e	0.40210766
150	0x3e87dc80	0.26535416
151	0xbd4a6b43	-0.0494187
152	0x3d910292	0.070805684
153	0x3f1def70	0.6169348
154	0xbf44ac2d	-0.7682522
155	0xbe89a718	-0.26885295
156	0xbc831155	-0.015999475
157	0x3dccf70a	0.100080565
158	0x3be882aa	0.0070956545
159	0xbd33b938	-0.04387781
160	0x3c8fc574	0.017550208
161	0x3d8015df	0.062541716
162	0xbbe0be90	-0.0068586543
163	0xbca25f5b	-0.01982086
164	0xbc2b4386	-0.010453111
165	0x3e6dc650	0.23220181
166	0x3d9cd4a7	0.07657748
167	0x3e3bc6ed	0.18337603
168	0x3d885ef9	0.066587396
169	0x3e22e624	0.15908104
170	0x3d933118	0.07187098
171	0x3d4e5c6a	0.0503811
172	0xbdeb8d7a	-0.11501594
173	0x3d5ed560	0.05440271
174	0x3dab67af	0.083693855
175	0xbe851802	-0.2599488
176	0x3ddb9926	0.1072257
177	0xbc841a28	-0.016125754
178	0xbec220f9	-0.3791578
179	0x3ea929c7	0.33039686
180	0xbd7ac3bf	-0.061221834
181	0x3e986c35	0.29770055
182	0x3f4667ae	0.7750195
183	0xbf683ec7	-0.9072079
184	0x3e8b9ad7	0.2726657
185	0x3dfe047c	0.12403199
186	0xbd9cdb6c	-0.07659039
187	0x3da0b46a	0.07846911
188	0x3d5b82a2	0.053591378
189	0x3da21bca	0.079154566
190	0x3e1da039	0.15393151
191	0x3dabf826	0.0839694
192	0x3e457750	0.19283795
193	0x3ed4e983	0.41584405
194	0xbcf0de20	-0.029402792
195	0x3dd9b2c7	0.10629802
196	0x3dd21310	0.10257542
197	0x3db01bc0	0.08599043
198	0xbe6117af	-0.21981691
199	0xbe10dd74	-0.14146978
200	0x3e6ec50c	0.23317355
201	0xbda70e6a	-0.08157046
202	0x3c7ff309	0.015621909
203	0xbe443e00	-0.19164276
204	0x3dabae99	0.08382911
205	0x3e45e786	0.193266
206	0x3decf9d4	0.115710884
207	0x3e0e0ffc	0.13873285
208	0xbb0a96be	-0.0021146978
209	0xbdbe1f58	-0.09283322
210	0xbaecd0d0	-0.0018067602
211	0xbf1b2ef1	-0.606185
212	0xbf6b6bab	-0.91961163
213	0x3f619624	0.8811972
214	0x3d04d9d2	0.032434292
215	0x3d85f448	0.065407336
216	0x3e26ef6c	0.1630227
217	0x3d9177f7	0.071029596
218	0x3da62ff8	0.08114618
219	0x3d7cd59c	0.06172715
220	0x3cf3ed1b	0.029776147
221	0x3e1a929f	0.15094994
222	0xbe1976a5	-0.14986666
223	0x3dfb168c	0.1226016
224	0x3dc1b186	0.09457688
225	0x3cd237a9	0.025661306
226	0x3daca013	0.08428969
227	0x3d82eda0	0.063929796
228	0x3e928b9e	0.28622144
229	0xbe24078d	-0.16018505
230	0xbc8f1ebf	-0.017470716
231	0xbec68024	-0.3876964
232	0x3ce97812	0.028499637
233	0xbdcdd5b1	-0.10050524
234	0xbd019c2f	-0.03164309
235	0xbddedea7	-0.10882311
236	0xbe6aa872	-0.2291582
237	0xbee20d7e	-0.4415092
238	0xba82286d	-0.0009930261
239	0xbd98948e	-0.074502096
240	0x3e82fe3a	0.25584584
241	0x3f45606f	0.7710027
242	0xbe080bd9	-0.1328577
243	0x3d59adaa	0.053144135
244	0x3d038246	0.03210666
245	0x3d81fe31	0.06347311
246	0xbde13c6a	-0.10997851
247	0xba82bc3d	-0.0009974312
248	0x3c06f0c3	0.008236113
249	0x3d8f1dd3	0.069881104
250	0xbd1fb735	-0.03899308
251	0x3e4d8780	0.2007122
252	0xbe7e464f	-0.24831508
253	0x3dfdc38f	0.123908155
254	0x3e08f2ba	0.13373843
255	0xbe5c164b	-0.21492879

fc1.bias f4 [64]
0	0x3d8cba68	0.06871492
1	0x3b5f9e6a	0.0034121522
2	0x3b9a0c3b	0.004701165
3	0xbd5bf0ec	-0.053696558
4	0x3d54c064	0.05194129
5	0x3d70f854	0.058830574
6	0xbd34547e	-0.04402589
7	0xbc38d87e	-0.0112820845
8	0x3c8c6e95	0.017142573
9	0x3d0a36ea	0.033743776
10	0x3dc6a922	0.09700228
11	0xbc2ab428	-0.010418929
12	0x3d61bd10	0.055111945
13	0x3cb8d25c	0.022561245
14	0x3d6efb4f	0.058345135
15	0xbd49b0fa	-0.049241044
16	0x3cfea8e0	0.031086385
17	0x3cc20427	0.02368362
18	0xbcae2215	-0.021256486
19	0xbc7ff90a	-0.01562334
20	0x3d02f46a	0.031971373
21	0x3d68b2eb	0.056811254
22	0xbd7b0546	-0.061284326
23	0x3c612790	0.013742343
24	0x3d68453d	0.056706656
25	0x3db8c275	0.09021465
26	0x3d870521	0.06592775
27	0x3d441ab6	0.047877036
28	0x3d00f1d5	0.03148063
29	0x3ddc0f38	0.1074509
30	0x3d35ca57	0.04438242
31	0xbce08add	-0.027409965
32	0x3d034484	0.032047763
33	0x3d29ff06	0.041502975
34	0xbcb37589	-0.021906631
35	0xbbc2dc96	-0.005946706
36	0xbd388735	-0.04505082
37	0x3d99cf61	0.075102575
38	0x3c9b77d8	0.018978044
39	0xbd5f9206	-0.05458262
40	0xbd6219cf	-0.055200394
41	0xbce55cd2	-0.027998362
42	0x3c843c51	0.016142042
43	0xbcec2cfd	-0.028830046
44	0xbbafaf3d	-0.005361466
45	0x3c64bbee	0.013960822
46	0xbcbdcf45	-0.023170123
47	0x3d1739cd	0.036920357
48	0xbc966fcd	-0.018363858
49	0x3d74b1e9	0.05973998
50	0xbcad52a1	-0.021157565
51	0x3de9d483	0.114174865
52	0x3cd39e1c	0.025832228
53	0x3d2f5179	0.042802308
54	0xbd56621d	-0.052339662
55	0x3d68b11b	0.056809526
56	0xbd1156ae	-0.035483055
57	0x3cd11a34	0.02552519
58	0x3d17552e	0.036946468
59	0x3dd77b7c	0.105216
60	0xbd8183c9	-0.06323964
61	0xbd162c72	-0.03666348
62	0x3dc85723	0.09782245
63	0xbc2f26b1	-0.010690377

adding.weight f4 [64, 64]
0	0xbd324ca0	-0.043530107
1	0xbddfc364	-0.1092594
2	0x3d03a19c	0.032136545
3	0xbd5d5274	-0.05403371
4	0xbdcafd8a	-0.0991164
5	0xbc8084f8	-0.015688404
6	0xbdda02ac	-0.10645041
7	0x3d7c3b00	0.061579704
8	0xbda8adf6	-0.082363054
9	0xbd2e4698	-0.042547792
10	0xbdfd4168	-0.12365991
11	0xbc8e6e48	-0.01738657
12	0xbd1e183c	-0.03859733
13	0x3d8d4254	0.06897417
14	0xbce7b760	-0.028285682
15	0x3dac55dc	0.08414814
16	0x3ddf80b0	0.10913217
17	0x3cd0de20	0.025496542
18	0xbd2f7bb8	-0.042842597
19	0xbdd2e748	-0.1029802
20	0xbdb31c9e	-0.08745693
21	0xbd2c7cb4	-0.042111114
22	0xbda06ee2	-0.07833649
23	0x3d878c22	0.06618525
24	0xbd254d0c	-0.04035668
25	0xbb95ef20	-0.004575625
26	0x3baa6f80	0.00520128
27	0xbddd3432	-0.10800971
28	0x3dd57780	0.104231834
29	0xbd43af24	-0.04777445
30	0xbdcf36fc	-0.10117909
31	0xbb018980	-0.0019765794
32	0xbde1041a	-0.109871104
33	0x3c7f8840	0.015596449
34	0xbda5a7e0	-0.0808866
35	0xbce09198	-0.027413175
36	0xbd1696f0	-0.03676504
37	0x3db9423c	0.09045836
38	0x3dc59068	0.09646684
39	0x3dfdc7a8	0.12391597
40	0x3c619a40	0.013769686
41	0x3da34ac4	0.07973245
42	0xbdd2168a	-0.10258205
43	0xbdabba1c	-0.08385107
44	0x3d89c5c8	0.06727177
45	0x3ce0f0f8	0.027458653
46	0x3d0db5b0	0.0345971
47	0x3d925746	0.07145552
48	0x3da25140	0.079256535
49	0x3d709cc8	0.05874327
50	0xbd3dab34	-0.04630585
51	0xbd222fec	-0.039596483
52	0x3cd7a908	0.026325718
53	0x3dd2b100	0.10287666
54	0xbc1b2f70	-0.009471759
55	0xbd186784	-0.037208095
56	0x3d8d6f46	0.06905989
57	0x3da9b6b0	0.08286798
58	0xbb181100	-0.0023203492
59	0xbd176768	-0.03696385
60	0xbdff0aea	-0.124532536
61	0x3bfba580	0.0076796412
62	0x3d1cf2ac	0.038317367
63	0xbdbbf1f2	-0.09177007
64	0xbdbe1084	-0.09280494
65	0xbdffef20	-0.12496781
66	0x3dc80770	0.097670436
67	0x3deffcc0	0.1171813
68	0x3dfd5aba	0.1237082
69	0x3de48b68	0.11159402
70	0xbc57e980	-0.013178229
71	0x3d63ba60	0.055597663
72	0x3d978656	0.073986694
73	0xbd08c534	-0.033391193
74	0xbd937dec	-0.07201752
75	0x3dd518bc	0.10405108
76	0xbc569cf0	-0.01309894
77	0x3d3ccc48	0.046093255
78	0xbd6f6e10	-0.058454573
79	0xbd840eec	-0.064481586
80	0xbcbdbe18	-0.023161933
81	0x3b8774e0	0.0041338056
82	0x3d97730c	0.0739499
83	0x3da64d0e	0.08120166
84	0xbc80a988	-0.015705839
85	0x3dfbaf18	0.12289256
86	0xbd88491a	-0.06654568
87	0x3c09a800	0.008401871
88	0xbda071fa	-0.07834239
89	0x3ca7a198	0.020462796
90	0x3de9531e	0.113928065
91	0xbdd3c27a	-0.10339828
92	0x3cf0e288	0.029404894
93	0xbdeb458a	-0.11487873
94	0xbce505f0	-0.027956933
95	0xbd70a1c4	-0.05874802
96	0x395cf400	0.00021071732
97	0xbdb1a880	-0.08674717
98	0x3d02084c	0.031746194
99	0xbdf18ea8	-0.11794788
100	0x3ce07ab8	0.027402267
101	0xbd456f0c	-0.048201606
102	0xbd9933d6	-0.0748059
103	0x3dd906f0	0.10597026
104	0x3c5d1800	0.013494492
105	0xbda97582	-0.08274366
106	0xbd904b44	-0.07045606
107	0xbd6470b0	-0.05577153
108	0xbd977afe	-0.07396506
109	0x3c7d3ed0	0.01545687
110	0x3ae6aa00	0.0017598271
111	0x3ddf2dd4	0.10897413
112	0x3b6f2f00	0.003649652
113	0xbd888e68	-0.06667787
114	0x3ddc202c	0.10748324
115	0x3d00c238	0.03143522
116	0xbcdcf340	-0.02697146
117	0x3db3a95c	0.08772537
118	0x3dd1ddd8	0.102473915
119	0xbdd7842a	-0.10523255
120	0xbdd32330	-0.10309446
121	0xbda865c0	-0.08222532
122	0xbddc2660	-0.10749507
123	0xbd199ce8	-0.037503153
124	0x3d3b6cd8	0.0457581
125	0xbde986d0	-0.114026666
126	0xbdfa3466	-0.122170255
127	0xbddc7002	-0.10763551
128	0xbd85924e	-0.06522046
129	0x3da08146	0.07837157
130	0x3de2f872	0.110825434
131	0x3dfe513e	0.124178395
132	0x3ab27d00	0.0013617575
133	0xbdd8d1b2	-0.10586871
134	0x3df9a61c	0.12189886
135	0xbdac151e	-0.08402465
136	0x3d414f74	0.047194913
137	0x3d7feec0	0.06248355
138	0x3d1e49b8	0.038644522
139	0x3d28fc34	0.041256145
140	0xbdeecfda	-0.11660738
141	0xbd2c85c4	-0.042119756
142	0xbda4a93e	-0.08040093
143	0x3db0cd52	0.08632912
144	0xbd9172ba	-0.071019605
145	0xbb43f9c0	-0.0029903501
146	0x3de38afa	0.11110492
147	0x3dc20966	0.09474449
148	0xbdb82fbc	-0.089934796
149	0xbdd58ed4	-0.10427633
150	0x3dca9e42	0.098934665
151	0x3d1359dc	0.03597437
152	0xbdc4453a	-0.095835164
153	0x3ddd5a7a	0.10808273
154	0xbdb8d064	-0.09024122
155	0x3ddd9d0e	0.108209714
156	0x3db7a940	0.08967829
157	0x3db66d06	0.08907513
158	0xbcc475e8	-0.023982003
159	0x3c31fdf0	0.010863766
160	0xbdd5c510	-0.10437977
161	0x3d903772	0.07041825
162	0x3bec2c00	0.0072073936
163	0x3dbd915c	0.09256241
164	0xbd57d49c	-0.052692994
165	0x3df74b2a	0.12074883
166	0x3daaa4b8	0.08332199
167	0xbd0f6c04	-0.03501512
168	0x3d0bc98c	0.034127757
169	0xbdbac138	-0.09118885
170	0xbdaa7158	-0.083224
171	0xbdaf678c	-0.08564672
172	0xbd930f80	-0.07180691
173	0x3d0e58a0	0.034752488
174	0xbd5caac8	-0.053873807
175	0xbd30d6c8	-0.04317358
176	0x3db316d0	0.087445855
177	0x3ca921f0	0.020646065
178	0xbd798908	-0.0609217
179	0xbd0af344	-0.033923402
180	0xbd069b94	-0.032863215
181	0x3d6f071c	0.05835639
182	0x3db433f0	0.08798969
183	0x3dcbfd54	0.09960428
184	0xbdae2be4	-0.08504465
185	0xbc5aca30	-0.013353869
186	0x3cf05d98	0.029341504
187	0xbd4819b8	-0.048852652
188	0x3da8539c	0.08219072
189	0xbc63af60	-0.013896793
190	0x3c5a8a30	0.0133386105
191	0xbddadc9e	-0.10686611
192	0x3db8f9ba	0.090320066
193	0xbda9a162	-0.082827345
194	0xbb4501c0	-0.0030060858
195	0xbdd0ce4e	-0.101955995
196	0x3dc2c308	0.095098555
197	0x3becc0a0	0.007225111
198	0x3d6693a4	0.056293145
199	0xbdc93738	-0.09824985
200	0x3c2e1e80	0.010627389
201	0x3d51c358	0.051211685
202	0x3db4c93a	0.088274434
203	0x3dbc23f6	0.091865465
204	0xbcb6d258	-0.022317097
205	0xbc500300	-0.012696028
206	0x3d2a1d20	0.041531682
207	0xbd38178c	-0.04494433
208	0xbd505768	-0.050864607
209	0xbdebb134	-0.11508408
210	0xbdfb0b64	-0.12258032
211	0xbd86cc10	-0.065818906
212	0x3c7fb360	0.015606731
213	0x3c2512a0	0.010075241
214	0x3c244e40	0.010028422
215	0x3c995a00	0.018719673
216	0xbcbd1de0	-0.023085535
217	0xbdfceba8	-0.12349635
218	0x3de498ca	0.11161955
219	0xbdbb5158	-0.091463745
220	0xbabfdb80	-0.001463756
221	0x3d4b6ec8	0.049666196
222	0x3d034140	0.03204465
223	0xbd5e6138	-0.054291934
224	0xbdde77ba	-0.1086268
225	0x3dccf9cc	0.100085825
226	0x3b697200	0.0035620928
227	0x3de9791e	0.114000544
228	0x3d6ee09c	0.058319673
229	0x3d5aba08	0.05340007
230	0x3cdd9388	0.027047887
231	0xbce6f2e8	-0.028191999
232	0xbd96093e	-0.073259816
233	0x3c78b4f0	0.015179858
234	0x3df6001e	0.12011741
235	0x3d99791e	0.074938044
236	0x3de893bc	0.11356303
237	0x3df01484	0.11722663
238	0x3dc80744	0.09767011
239	0xbd8fb05a	-0.07016058
240	0xbd8b6b0e	-0.068075284
241	0xbb8c8460	-0.0042882413
242	0xbd8465dc	-0.06464741
243	0xbd0aec68	-0.03391686
244	0xbd2f62d8	-0.042818874
245	0x3de002f8	0.10938066
246	0xbc09b6e0	-0.008405417
247	0x3df7cd32	0.12099685
248	0xbdc680de	-0.09692548
249	0xbdfc859e	-0.12330173
250	0x3c926928	0.017872408
251	0x3ccc10a0	0.024910271
252	0xbd4e9b60	-0.050441146
253	0xbd818d98	-0.06325835
254	0x3d11d3b8	0.0356023
255	0x3bcd32e0	0.0062621683

adding.bias f4 [64]
0	0x3d70f74c	0.05882959
1	0x3cc93360	0.02456063
2	0xbc1a37c0	-0.009412706
3	0x3dc38010	0.0954591
4	0x3d4fb734	0.050711825
5	0x3d2245b0	0.03961724
6	0x3daf561c	0.08561346
7	0x3cd36c68	0.025808528
8	0xbd0f1278	-0.034929723
9	0x3d02c1e0	0.031923175
10	0xbd7e73e8	-0.062122256
11	0x3d9cecc8	0.0766235
12	0xbd234884	-0.03986408
13	0x3ce97bd0	0.028501421
14	0x3d0f81ac	0.035035774
15	0xbdbfac78	-0.09359068
16	0xbdd5bd3e	-0.10436486
17	0x3daff2e6	0.08591251
18	0xbdfcb754	-0.123396546
19	0xbd333670	-0.043753088
20	0x3d922efe	0.07137869
21	0x3cfe8390	0.031068593
22	0x3df54738	0.119764745
23	0xbdfb256e	-0.122629985
24	0x3d31e888	0.04343465
25	0xbd4258b4	-0.047447875
26	0x3d55b0e8	0.052170664
27	0x3dbb7260	0.09152675
28	0x3dad6212	0.08465971
29	0xbdfdc8e4	-0.123918325
30	0xbd353584	-0.04424049
31	0x3db337de	0.0875089
32	0x3d3f9fb8	0.04678318
33	0xbdd01a28	-0.10161239
34	0x3d9d6b30	0.0768646
35	0x3db1f8f6	0.08690064
36	0xbd7885a0	-0.06067431
37	0xbd18c7a8	-0.037299782
38	0xbdb86e6c	-0.09005436
39	0xbdc1cdce	-0.09463082
40	0xbd6c93b4	-0.05775805
41	0xbcef8500	-0.029238224
42	0x3b453f80	0.0030097663
43	0x3d9b9894	0.07597461
44	0x3de57d7a	0.112055734
45	0x3c601d50	0.013678864
46	0x3d97d10e	0.07412921
47	0x3d989a6a	0.07451327
48	0x3cc867c8	0.02446355
49	0xbd7272a0	-0.059191346
50	0x3d4dacf4	0.05021377
51	0x3c9fb658	0.019496128
52	0xbdcb2878	-0.09919828
53	0xbd2115bc	-0.03932737
54	0xbd48b628	-0.049001843
55	0x3d335aac	0.043787643
56	0xbd6cef90	-0.057845652
57	0x3d56ca44	0.05243899
58	0xbbe33980	-0.006934345
59	0xbcaeea80	-0.021352053
60	0x3d45956c	0.048238203
61	0x3d9c63bc	0.0763621
62	0x3d1d81bc	0.038453802
63	0x3caef1d8	0.021355554

fc2.weight f4 [12, 64]
0	0x3e82ba44	0.25532734
1	0x3d472cb1	0.048626605
2	0xbed7d6e1	-0.42156127
3	0xbd874cd8	-0.06606454
4	0xbe5c8068	-0.21533358
5	0xbeb16d6c	-0.34653795
6	0xbe2bec2d	-0.16789313
7	0x3e0dc579	0.13844861
8	0xbe2e3b39	-0.17014779
9	0xbe080c01	-0.13285829
10	0xbe79df61	-0.24401619
11	0xbeb8367e	-0.35979074
12	0x3e4dd58a	0.2010099
13	0x3eb57698	0.35442042
14	0xbda92c06	-0.0826035
15	0xbe00ee28	-0.1259085
16	0x3e92798f	0.28608367
17	0x3eb7f010	0.3592534
18	0x3e098260	0.1342864
19	0x3e8f3908	0.279732
20	0xbe984170	-0.29737425
21	0x3d7f6df8	0.062360734
22	0xbee98f8d	-0.45617333
23	0x3e832242	0.25612074
24	0xbd933bad	-0.071891166
25	0x3e9fa794	0.3118254
26	0x3d80dbb7	0.06291907
27	0x3d84fffe	0.06494139
28	0xbcb69143	-0.022286063
29	0x3ecf3f6f	0.40478083
30	0x3e652800	0.2237854
31	0x3cb2a09c	0.0218051
32	0xbea12420	-0.31472874
33	0xbd830f67	-0.06399422
34	0xbea6c0ed	-0.32569066
35	0x3db9673f	0.09052896
36	0xbeb99afe	-0.36251062
37	0xbde7cea3	-0.1131871
38	0x3e89c1bf	0.2690563
39	0xbe22798b	-0.15866677
40	0xbefb1937	-0.49042675
41	0x3e654465	0.22389372
42	0xbeb492fe	-0.35268396
43	0xbead8bfb	-0.3389586
44	0xbe9bc973	-0.3042713
45	0xbc782f20	-0.015147954
46	0x3ca81422	0.020517413
47	0x3df79b50	0.120901704
48	0x3f07558b	0.52864903
49	0x3d8250c6	0.063630626
50	0x3e7ab3c8	0.24482644
51	0xbdee3db0	-0.1163286
52	0xbe194814	-0.14968902
53	0x3e2e13cb	0.16999738
54	0x3e56661c	0.20937389
55	0x3c58b208	0.01322604
56	0xbea632d4	-0.32460654
57	0x3ea42901	0.32062533
58	0xbcc71381	-0.024301292
59	0x3ed4b922	0.41547495
60	0xbe6d4caf	-0.23173784
61	0xbe61f10f	-0.22064613
62	0x3e5bc5e0	0.21462202
63	0x3dc4bc23	0.09606197
64	0xbd974b87	-0.073874526
65	0xbe8dddeb	-0.27708372
66	0x3e84bbd8	0.25924563
67	0xbe2e7049	-0.17035021
68	0x3cf2742f	0.029596416
69	0x3e4d1d5c	0.20030731
70	0x3e8eae54	0.27867377
71	0xbda4d91c	-0.08049223
72	0x3e824052	0.25439698
73	0xbdb00764	-0.0859516
74	0x3e4cd722	0.20003942
75	0x3d2af248	0.041734964
76	0x3f074d85	0.5285266
77	0x3e31f6ad	0.17379256
78	0xbe9f2b95	-0.31087938
79	0x3e9e64db	0.30936322
80	0x3dd75b26	0.10515432
81	0x3e482121	0.19543888
82	0x3ae5604d	0.0017500013
83	0x3e3f1245	0.18659313
84	0xbe0362d4	-0.12830669
85	0x3e8b80c4	0.27246678
86	0x3da2d6a0	0.07951093
87	0xbe0bc641	-0.13649847
88	0xbe3c0c1a	-0.18363991
89	0x3e6181c1	0.22022153
90	0x3e6f4d00	0.23369217
91	0xbde9b548	-0.1141153
92	0xbd9cb0ec	-0.07650933
93	0xbe595c31	-0.21226574
94	0x3a5c9b21	0.000841545
95	0xbec17995	-0.37788072
96	0xbe8cfed4	-0.27538168
97	0xbe222963	-0.158361
98	0xbec188f6	-0.37799805
99	0x3d94dc63	0.07268598
100	0xbdbc9b16	-0.09209268
101	0x3e0184d6	0.12648329
102	0xbefde353	-0.49587497
103	0x3e114c68	0.14189303
104	0xbe280bb4	-0.16410714
105	0xbea9a1d1	-0.3313127
106	0xbe00ea2d	-0.12589331
107	0xbe42afb0	-0.19012332
108	0xbcfa36ab	-0.030543646
109	0xbe907dda	-0.28221017
110	0xbeb18932	-0.34674984
111	0xbe2693bb	-0.16267292
112	0xbdb7756d	-0.08957944
113	0xbd8568c2	-0.065141216
114	0x3e6a3f9f	0.22875832
115	0x3e1b4bce	0.15165636
116	0x3ea02830	0.3128066
117	0xbe268a35	-0.1626366
118	0x3e0b88f4	0.13626462
119	0xbdb63c0b	-0.08898171
120	0xbd5f1ede	-0.054472797
121	0x3ea35cac	0.3190664
122	0xbcad55f3	-0.021159148
123	0xbf00ec94	-0.5036099
124	0xbe94eeb3	-0.29088363
125	0xbd34d1af	-0.044145282
126	0x3e5cb353	0.21552782
127	0xbbddaa68	-0.006764699
128	0xbe5d5087	-0.2161275
129	0x3ca3de9d	0.020003611
130	0xbe8c45a6	-0.27396888
131	0xbe8bdac3	-0.2731534
132	0xbe06e101	-0.1317177
133	0xbe4d1279	-0.20026578
134	0xbd433ac1	-0.047663454
135	0x3d0bd4ff	0.034138676
136	0xbe796573	-0.24355106
137	0xbe31e313	-0.17371778
138	0xbde381ff	-0.11108779
139	0xbeb53774	-0.3539387
140	0x3da90d9e	0.082545504
141	0xbda621ac	-0.08111891
142	0xbdd63e91	-0.10461152
143	0xbdd5be75	-0.104367174
144	0x3e4d86b6	0.2007092
145	0xbed08004	-0.40722668
146	0xbe491341	-0.19636251
147	0xbe7c9960	-0.24667883
148	0x3d3b4a9f	0.04572546
149	0xbea82dc1	-0.32847407
150	0x3cf0e5ae	0.029406395
151	0xbe7ca62b	-0.24672763
152	0xbe87768d	-0.26457635
153	0xbe9bea9a	-0.30452424
154	0xbe30a423	-0.17250113
155	0x3d4df163	0.050279032
156	0xbe982e48	-0.2972281
157	0xbda018d8	-0.078172386
158	0x3b9ac673	0.004723364
159	0xbc99fdc9	-0.018797772
160	0xbe923eb7	-0.28563473
161	0xbe8fd3a9	-0.2809117
162	0x3d9ff7d4	0.07810941
163	0xbc0aa84f	-0.008462979
164	0xbd07fd26	-0.033200406
165	0x3df8d56d	0.12150083
166	0x3e1374a2	0.1439996
167	0x3e01bdbd	0.12670036
168	0x3d659e46	0.056059144
169	0xbe253d2e	-0.1613662
170	0x3e0bae7e	0.13640782
171	0xbd8f94da	-0.07010813
172	0x3e160eca	0.14654079
173	0xbe342de3	-0.1759563
174	0xbea2a52c	-0.3176664
175	0xbe870c63	-0.26376638
176	0xbd8a1b20	-0.06743455
177	0xbd76fd73	-0.0603003
178	0x3bad6d6a	0.005292584
179	0x3e6a38fa	0.22873297
180	0xbe6be652	-0.23037079
181	0xbd6752ff	-0.056475636
182	0x3e9436a8	0.2894795
183	0xbd514ee9	-0.051100645
184	0xbe8f1190	-0.27943087
185	0xbda0b495	-0.07846943
186	0xbeb9452a	-0.3618558
187	0xbe453a1b	-0.19260447
188	0xbe3dc28f	-0.1853125
189	0x3e3c0809	0.1836244
190	0x3da197cf	0.07890283
191	0xbe44dddc	-0.19225258
192	0x3d754a8f	0.059885558
193	0xbec20d68	-0.37900853
194	0xbe468ee2	-0.19390443
195	0x3e2ee3c3	0.17079072
196	0x3ba1f22b	0.0049421987
197	0x3e8bd2ec	0.27309358
198	0x3d8770f3	0.0661334
199	0xbd552c83	-0.052044403
200	0x3d40fb9e	0.04711496
201	0x3e44f73b	0.19234936
202	0x3dd0c29f	0.10193371
203	0xbe903cb6	-0.2817132
204	0x3d2ecb8b	0.042674582
205	0x3e48c1eb	0.19605224
206	0x3d6b85cc	0.057500646
207	0x3de00154	0.10937753
208	0xbd260a34	-0.040537074
209	0x3ea83854	0.32855475
210	0x3ec19f85	0.37817016
211	0xbdc28855	-0.094986595
212	0xbe68ae5f	-0.22722767
213	0x3e3e97b3	0.18612556
214	0xbbfa2f4e	-0.0076350337
215	0x3d880bac	0.06642851
216	0xbea5ff2b	-0.3242124
217	0xbe2be8ef	-0.16788076
218	0xbeff4dfb	-0.49864182
219	0x3e6d709f	0.23187493
220	0x3e27e09c	0.16394275
221	0x3e424d93	0.18974905
222	0xbce11fa2	-0.027480904
223	0x3dd7666c	0.10517582
224	0x3f0e2a7c	0.55533576
225	0x3eb08c51	0.34482053
226	0xbd24886a	-0.040169157
227	0x3d978142	0.07397701
228	0xbe890f86	-0.26769656
229	0x3e08a937	0.133458
230	0xbe88b7f4	-0.26702845
231	0x3e7c58d4	0.2464326
232	0xbd26ecc0	-0.040753126
233	0xbe87d051	-0.2652612
234	0xbedf8d76	-0.43662614
235	0x3e7ede3c	0.24889463
236	0xbbdd80c3	-0.0067597344
237	0xbe0e2024	-0.13879448
238	0xbce6bb38	-0.028165445
239	0x3e956079	0.29175165
240	0x3e33611d	0.17517515
241	0xbdcaa3e4	-0.09894541
242	0x3ded4503	0.115854286
243	0x3f197b60	0.5995388
244	0xbeb98c72	-0.36239964
245	0xbf11e687	-0.5699238
246	0x3ea7258a	0.32645828
247	0x3e9c0e7f	0.3047981
248	0x3cad9646	0.02118982
249	0xbe24139b	-0.16023104
250	0xbe7f5a7a	-0.24936858
251	0xbdca71d9	-0.09884996
252	0x3eb2fe5d	0.3495969
253	0x3dad1b95	0.084525265
254	0xbcdaef64	-0.026725478
255	0xbf015dfd	-0.5053404

fc2.bias f4 [12]
0	0x3ddad863	0.10685804
1	0x3defc849	0.11708123
2	0xbd093a86	-0.033503078
3	0x3cfefe21	0.031127037
4	0x3d9d6448	0.07685143
5	0x3c261d8f	0.010138883
6	0x3e06fcff	0.13182448
7	0x3e0e693d	0.13907333
8	0x3da508f7	0.080583505
9	0x3dc43e8e	0.09582244
10	0x3db506f8	0.0883922
11	0x3e41b65d	0.18917222
