weight/new_transE.pt (torch_old, 263916 bytes, 16 tensors)

entities_emb_head.weight f4 [95, 50]
0	0xbe6e3518	-0.23262441
1	0x3e2f2695	0.17104562
2	0xbdc35df4	-0.095394045
3	0x3d353a90	0.044245303
4	0x3da6f808	0.08152777
5	0x3d3e1555	0.046407063
6	0x3e0c4798	0.13699186
7	0x3dc7919d	0.097445704
8	0x3de58973	0.11207857
9	0xbe6543dc	-0.22389168
10	0x3d631fad	0.05545013
11	0x3e133fea	0.1437985
12	0x3cff6c2e	0.031179514
13	0xbe04d4a9	-0.12971748
14	0x3e1790d3	0.1480134
15	0x3d0609c2	0.03272415
16	0xbe6598c3	-0.22421555
17	0xbc6e842d	-0.01455788
18	0xbe4b9572	-0.19881228
19	0xbd25f172	-0.040513463
20	0xbca5aa51	-0.020222815
21	0xbd9d0dd7	-0.07668655
22	0xbcc0103d	-0.023445243
23	0xbe2e780c	-0.17037982
24	0xbd968ecb	-0.07351454
25	0x3dfebb48	0.12438065
26	0x3e2ebe5e	0.17064807
27	0x3d3d7b62	0.046260245
28	0x3e261635	0.16219409
29	0xbe7e229e	-0.24817893
30	0x3d440a7b	0.047861557
31	0x3e7e8b07	0.24857722
32	0xbde87508	-0.11350447
33	0x3be4bd5a	0.0069805803
34	0x3d81bf85	0.063353576
35	0xbe254063	-0.16137843
36	0xbd56aa09	-0.052408252
37	0x3e7ab79f	0.24484108
38	0x3e134260	0.14380789
39	0xbdfaf96c	-0.12254605
40	0x3d87ff9d	0.06640551
41	0x3e79d618	0.24398077
42	0x3e5db24f	0.2165005
43	0xbe42776e	-0.18990871
44	0x3cf05510	0.029337436
45	0xbd122050	-0.035675347
46	0xbe643704	-0.22286612
47	0x3e6b94f9	0.23006047
48	0x3d98c880	0.07460117
49	0xbdd7c762	-0.10536076
50	0xbd665ab3	-0.05623884
51	0x3d34d5d1	0.044149224
52	0x3de81614	0.11332336
53	0x3ac19fa0	0.0014772303
54	0x3e6e7ac7	0.23289023
55	0x3db86d42	0.09005214
56	0xbd72cfca	-0.059280194
57	0xbd03cd3f	-0.03217816
58	0xbe2f2ec8	-0.1710769
59	0xbdf8f96a	-0.12156947
60	0x3d134764	0.035956755
61	0xbdeece1c	-0.11660406
62	0xbe330ed5	-0.17486127
63	0x3c8fbca8	0.017546013
64	0x3e2bc364	0.16773754
65	0xbe7e9e89	-0.24865164
66	0x3e423623	0.18965964
67	0x3e5fd0fe	0.21857068
68	0xbe43a179	-0.19104566
69	0x3e019727	0.12655316
70	0xbe56275c	-0.20913452
71	0x3dc90110	0.09814656
72	0x3da59800	0.08085632
73	0xbc719407	-0.014744765
74	0xbe893861	-0.26800826
75	0x3dffcb5e	0.12489961
76	0xbe307e17	-0.172356
77	0xbe1b90c0	-0.15191936
78	0xbe51d5c9	-0.20491709
79	0x3d897657	0.06712025
80	0x3d80c8de	0.062883124
81	0x3e1b8a83	0.15189557
82	0x3e2b3621	0.16719867
83	0xbdc51d1d	-0.096246935
84	0x3cf8b3bf	0.030359147
85	0xbe07389a	-0.13205186
86	0x3bab0771	0.005219393
87	0xbd7c46d6	-0.061590992
88	0x3e625c53	0.22105531
89	0x3dfc9d21	0.123346575
90	0xbda06e0a	-0.07833488
91	0x3e915a10	0.28389025
92	0x3e1b894c	0.15189093
93	0xbd515afb	-0.051112156
94	0x3cf8c795	0.030368606
95	0x3de57b62	0.11205174
96	0x3e1e08c4	0.15433031
97	0x3c8a50a3	0.016884154
98	0x3e5c56bf	0.21517466
99	0x3d977777	0.07395833
100	0x3e81192d	0.2521452
101	0x3e7ec863	0.24881129
102	0xbe479772	-0.19491366
103	0xbc167dbf	-0.009185254
104	0xbbf06bf8	-0.0073370896
105	0x3c53bc5d	0.012923327
106	0xbe42a494	-0.19008094
107	0xbce84221	-0.028351845
108	0x3e3ca638	0.18422782
109	0xbdaeed18	-0.08541316
110	0xbe439cf4	-0.19102842
111	0xbe4c99b3	-0.19980507
112	0x3e2ff182	0.17181972
113	0xbc15a0b1	-0.00913255
114	0xbce60565	-0.028078744
115	0xbbae0a8a	-0.005311315
116	0xbd94a126	-0.07257299
117	0xbe1959c9	-0.14975657
118	0xbe0d5c9f	-0.13804863
119	0x3e117508	0.142048
120	0x3e24dc4d	0.16099663
121	0x3e318e15	0.17339356
122	0xbd9a8fed	-0.07546983
123	0x3e1175e3	0.14205126
124	0xbda6588b	-0.08122357
125	0x3e755ea4	0.23961884
126	0xbdff8de1	-0.12478233
127	0xbe1a1a19	-0.15049018
128	0xbe15b44c	-0.14619559
129	0xbd96982e	-0.07353245
130	0xbe277f60	-0.16357183
131	0xbe5bb316	-0.21455035
132	0xbe0ad1bd	-0.13556571
133	0x3d6f0a07	0.058359172
134	0x3e25c85f	0.16189717
135	0xbcaef67b	-0.021357765
136	0xbe1ee0ba	-0.15515414
137	0xbc4a1e78	-0.012336366
138	0xbe129f13	-0.14318494
139	0x3e40f9a7	0.18845235
140	0x3cbc7815	0.023006478
141	0x3e3f213c	0.18665022
142	0xbcbee72d	-0.023303593
143	0x3da3bf57	0.079954796
144	0x3e53d0f3	0.20685177
145	0x3e4f0a25	0.20218714
146	0x3dab85f7	0.08375161
147	0x3c8032b0	0.01564917
148	0xbe3305a8	-0.17482626
149	0x3db8c286	0.090214774
150	0x3e1ad440	0.1512003
151	0x3e833bc7	0.25631544
152	0xbdfa30ab	-0.12216314
153	0xbd1d61b8	-0.03842327
154	0x3d649183	0.055802833
155	0xbe0c4d09	-0.13701262
156	0x3db7072d	0.089369155
157	0x3e0d29d1	0.13785483
158	0x3e855def	0.26048228
159	0x3e0dc5e2	0.13845018
160	0x3dc53da4	0.09630898
161	0x3cdee029	0.027206497
162	0x3d293a93	0.041315626
163	0xbe4102f5	-0.18848784
164	0x3e8bd590	0.27311373
165	0x3def5c1c	0.1168749
166	0xbe813664	-0.2523681
167	0xbd45521f	-0.04817402
168	0x3d4e837f	0.050418373
169	0x3e6ed7d2	0.23324516
170	0xbd902d5c	-0.070399016
171	0xbc8ec3bc	-0.017427318
172	0xbe020a29	-0.12699188
173	0x3d9c4450	0.07630217
174	0x3d94af0c	0.0725995
175	0x3c87f092	0.016594205
176	0xbd0d0cb1	-0.03443593
177	0xbced5768	-0.028972343
178	0x3d939842	0.07206775
179	0xbdaf8dd6	-0.08571975
180	0x3e3784bf	0.17921732
181	0xbcd79b0b	-0.026319047
182	0xbe0f8e0f	-0.14019035
183	0x3e2ba60c	0.1676256
184	0x3d84b06f	0.064789645
185	0x3e547958	0.20749414
186	0x3dc47583	0.09592726
187	0x3e563bb5	0.20921214
188	0xbda02e3f	-0.07821321
189	0x3e37056a	0.17873159
190	0x3d90212b	0.07037576
191	0xbd8d58dd	-0.06901715
192	0xbdcf0bc8	-0.10109669
193	0x3e2f0264	0.17090756
194	0xbc8a8151	-0.016907366
195	0xbe837896	-0.25677937
196	0xb89086c4	-6.891557e-05
197	0xbdd003f5	-0.10157005
198	0x3e8b991d	0.27265254
199	0x3e3e2e75	0.1857241
200	0xbd578a69	-0.052622233
201	0xbda0a31b	-0.0784361
202	0x3d43d4da	0.047810413
203	0xbd837cf8	-0.0642032
204	0xbca9ed2e	-0.020742979
205	0xbe31ea73	-0.17374592
206	0x3d986a35	0.074421324
207	0xbe29a6ce	-0.16567537
208	0x3d102bf2	0.03519816
209	0x3e290c79	0.16508664
210	0x3e6cd8fd	0.2312965
211	0x3bbad07b	0.0057011223
212	0x3c8e7a23	0.017392224
213	0x3d495d1c	0.04916106
214	0x3e029199	0.12750854
215	0xbe6a33c1	-0.22871305
216	0x3e61925e	0.22028491
217	0xbe57d6b0	-0.2107799
218	0xbe5a5e33	-0.21324997
219	0xbde98e08	-0.114040434
220	0xbdeb0f74	-0.11477557
221	0x3e42db57	0.19028984
222	0xbe2f23d1	-0.17103507
223	0xbe478316	-0.19483599
224	0x3e31ad1b	0.17351191
225	0x3db48da0	0.08816075
226	0x3dd8a352	0.10578026
227	0x3da46100	0.08026314
228	0xbe4bd749	-0.19906344
229	0xbe2a6c63	-0.16642909
230	0xbd85c2ce	-0.06531297
231	0xbd9c122e	-0.07620655
232	0xbe2830d8	-0.16424882
233	0xbe328713	-0.17434339
234	0x3e13ae5d	0.14421983
235	0xbcba1aa5	-0.022717783
236	0x3e6f35da	0.23360386
237	0x3dad6637	0.084667616
238	0x3e0bd9f8	0.13657367
239	0x3e34c9bf	0.17655085
240	0x3e7384a3	0.23781066
241	0xbe3c16e6	-0.1836811
242	0x3d400cc6	0.04688718
243	0xbd82169c	-0.06351969
244	0xbd1c5c11	-0.03817374
245	0x3caf1fbc	0.021377437
246	0xbd9f5b4a	-0.07781084
247	0xbcdef3a2	-0.027215783
248	0x3e4997f3	0.1968687
249	0x3e38cebe	0.18047616
250	0xbe51d800	-0.20492554
251	0x3e8295c9	0.25504902
252	0x3d352563	0.044225108
253	0xbe29554a	-0.16536441
254	0xbd8fe851	-0.07026733
255	0x3ce8f18d	0.028435493

entities_emb_tail.weight f4 [591, 50]
0	0x3e3fcf71	0.18731476
1	0x3da99f58	0.082823455
2	0xbd82d1bf	-0.06387662
3	0xbd719b93	-0.058986258
4	0xbd4afa7f	-0.049555298
5	0xbe502825	-0.20327814
6	0x3e1fb3ca	0.15595928
7	0xbe60b615	-0.21944459
8	0xbe6da5d7	-0.23207794
9	0xbd806346	-0.06268935
10	0x3e3a1cab	0.18174998
11	0x3d158b21	0.036509637
12	0xbda44987	-0.08021837
13	0x3de18fd5	0.11013762
14	0x3cc64a16	0.024205249
15	0x3ce875e0	0.02837652
16	0xbdb423a8	-0.087958634
17	0x3e329a17	0.17441593
18	0x3da89a43	0.08232548
19	0x3e577f86	0.2104474
20	0xbe61174e	-0.21981546
21	0xbe3b53d0	-0.1829369
22	0x3c770c59	0.0150786275
23	0x3e32103e	0.17389008
24	0x3e2fe81b	0.17178385
25	0xbe1f2e11	-0.15544917
26	0xbda96831	-0.08271826
27	0x3e5e5022	0.21710256
28	0xbe76efea	-0.24114957
29	0xbe184541	-0.14870168
30	0x3e57c7cd	0.21072312
31	0xbdcf73b8	-0.101294935
32	0x3e0fc65b	0.1404051
33	0x3c90f437	0.017694576
34	0x3d947bea	0.07250197
35	0xbd81138d	-0.06302557
36	0xbe537963	-0.20651774
37	0xbe4dd4e2	-0.2010074
38	0xbd484218	-0.048891157
39	0x3d71283b	0.058876257
40	0x3c35755c	0.011075344
41	0xbe3e1ee3	-0.1856647
42	0xbd2bf96e	-0.04198592
43	0xbd6e6267	-0.058199313
44	0xbd4814c9	-0.048847947
45	0x3e140a81	0.14457132
46	0x3e31d8e1	0.17367889
47	0xbe31a99e	-0.1734986
48	0x3c5e18e8	0.013555743
49	0x3e436e9b	0.19085161
50	0x3dc53cad	0.096307136
51	0xbd86e11a	-0.065859035
52	0xbe819864	-0.25311577
53	0x3d0ca191	0.03433377
54	0x3bf89ad5	0.007586817
55	0x3e81ed5d	0.25376406
56	0x3d847da7	0.06469279
57	0x3dc11e4e	0.09429608
58	0xbda61a1d	-0.081104495
59	0xbe693b8e	-0.22776625
60	0x3d28dc88	0.04122594
61	0x3cc38cff	0.023870943
62	0xbe526695	-0.20546944
63	0xbd925646	-0.071453616
64	0xbdf6babf	-0.12047338
65	0x3d7b21c7	0.06131151
66	0x3da4b30d	0.08041964
67	0xbcd68e64	-0.026190944
68	0xbde1f2ac	-0.11032614
69	0x3e3a83fa	0.18214408
70	0x3dcf21b7	0.101138525
71	0x3e25f7b9	0.1620778
72	0x3e230c05	0.15922554
73	0x3de4b42a	0.11167176
74	0x3e66648d	0.22499295
75	0x3dd92318	0.10602397
76	0x3e6a33fd	0.22871394
77	0xbd7067be	-0.058692686
78	0x3e030357	0.12794243
79	0xbdc63853	-0.09678712
80	0x3e2e1a00	0.17002106
81	0xbe83930c	-0.25698125
82	0x3de7ed4d	0.113245584
83	0x3e7c65b8	0.24648178
84	0x3e8371e3	0.25672826
85	0x3b28b13f	0.0025740413
86	0x3d7aec15	0.0612603
87	0x3c477640	0.012174189
88	0x3cfe9489	0.031076686
89	0xbdc43703	-0.09580805
90	0xbe0949da	-0.13407078
91	0xbb97747d	-0.004622041
92	0x3da55529	0.08072884
93	0x3dbd3c73	0.092400454
94	0xbcdd96ac	-0.027049385
95	0xbe849c7c	-0.25900638
96	0x3e1a00ff	0.15039442
97	0x3d305cec	0.043057367
98	0xbdded87a	-0.108811334
99	0xbe7dd4c1	-0.2478819
100	0xbe3f1f9a	-0.18664399
101	0xbd99af62	-0.07504155
102	0x3c9dbc68	0.019254878
103	0xbdcac977	-0.099017076
104	0xbd4e42a1	-0.05035651
105	0xbd853e5c	-0.06506035
106	0x3da3c521	0.07996584
107	0x3e2883c1	0.1645651
108	0xbe2bdccd	-0.16783448
109	0xbd8f8187	-0.07007127
110	0x3e076c4f	0.1322491
111	0x3e289561	0.16463234
112	0x3e0bf6f5	0.13668425
113	0xbd670a05	-0.05640604
114	0x3e3773c4	0.17915255
115	0xbe1c51fb	-0.15265648
116	0xbcb9a3b4	-0.022661068
117	0xbe5b6022	-0.2142339
118	0x3d436898	0.04770717
119	0x3e10f571	0.14156128
120	0xbdf47546	-0.11936431
121	0xbe157d50	-0.14598584
122	0x3da06bec	0.078330845
123	0xbb7461d6	-0.003728976
124	0xbdda2b8b	-0.106528364
125	0xbdf2f962	-0.11863972
126	0xbd344cdc	-0.04401861
127	0xbd869ea7	-0.06573229
128	0x3d467be2	0.048457988
129	0xbe0afcb8	-0.13572967
130	0xbd07ed6a	-0.0331854
131	0xbd7d6fda	-0.061874248
132	0x3e83585c	0.2565335
133	0x3e014e67	0.12627564
134	0xbe55f8d7	-0.20895706
135	0xbd0c1071	-0.034195367
136	0xbd44c4ef	-0.048039373
137	0xbe2e2157	-0.17004906
138	0x3e052f46	0.13006315
139	0xbe412a3f	-0.18863772
140	0x3d42ee47	0.04759052
141	0x3e8166e2	0.25273806
142	0x3e7e36d5	0.24825604
143	0x3cf4cf07	0.029883875
144	0x3e4d09e2	0.20023301
145	0x3e830308	0.2558825
146	0xbe495731	-0.19662167
147	0x3e49bbcd	0.19700547
148	0x3e7fb21f	0.24970292
149	0xbd36b886	-0.04460957
150	0x3da4a7e4	0.08039835
151	0xbe6a9b78	-0.22910869
152	0xbbbdb871	-0.0057898094
153	0xbe011fb4	-0.1260975
154	0x3e576132	0.21033171
155	0x3e55ae72	0.20867327
156	0xbd0446aa	-0.032293953
157	0xbe53637b	-0.20643418
158	0x3d9d7d2f	0.076898925
159	0xbd25ba93	-0.040461134
160	0x3dd0b15d	0.10190079
161	0xbe1e1063	-0.15435939
162	0xbe0a6e3c	-0.13518614
163	0x3e007e29	0.12548126
164	0x3d4e4d6d	0.050366808
165	0x3df33753	0.11875787
166	0x3d91aca9	0.071130104
167	0x3e123bc5	0.14280613
168	0xbe607342	-0.21918967
169	0xbe3a7fa8	-0.1821276
170	0xbbf46511	-0.007458337
171	0xbdc976aa	-0.098370865
172	0xbcc2d279	-0.023782002
173	0xbe2a2f10	-0.16619515
174	0xbd3e48e2	-0.046456225
175	0x3ba00912	0.0048838938
176	0x3e2d60ef	0.16931508
177	0xbdc073a8	-0.0939706
178	0x3b3492fa	0.0027553425
179	0xbe6857af	-0.22689699
180	0x3b2f07ff	0.0026707647
181	0xbe3fb5c7	-0.18721686
182	0x3df8b1e7	0.12143307
183	0x3e3ab100	0.18231583
184	0xbe175889	-0.14779867
185	0xbe0b2dd1	-0.13591696
186	0x3e5ec52c	0.21754903
187	0xbe3186d8	-0.17336595
188	0x3e2539ce	0.16135332
189	0xbde20f2e	-0.110380515
190	0x3d82c5fe	0.0638542
191	0xbe79bcf4	-0.24388486
192	0xbda8e959	-0.082476325
193	0x3e5ec9fb	0.21756737
194	0x3d843050	0.064545274
195	0xbdc23e7e	-0.09484576
196	0x3e24ee4a	0.16106525
197	0xbdc6f194	-0.09714046
198	0xbe1e7e45	-0.15477856
199	0xbe433282	-0.19062236
200	0xbd8ad1f8	-0.067783296
201	0x3e05e602	0.13076022
202	0xbe2ff055	-0.17181523
203	0xbe475462	-0.19465783
204	0x3e5754dd	0.21028467
205	0x3e6525b9	0.22377671
206	0x3e64bcb8	0.22337615
207	0xbe345c45	-0.17613323
208	0xbd996b85	-0.07491211
209	0xbe0bac79	-0.13640012
210	0xbd2993d6	-0.041400753
211	0x3e5080e4	0.20361668
212	0xbd0e1f4f	-0.034697827
213	0x39be9a1f	0.00036354453
214	0xbcd0cda2	-0.025488678
215	0xbdec57da	-0.11540194
216	0x3da5936a	0.080847576
217	0x3e6349fc	0.22196192
218	0x3e6138d5	0.21994336
219	0xbe36baba	-0.17844668
220	0x3d9adfa0	0.07562184
221	0x3cc58d57	0.024115248
222	0xbe5f32ae	-0.21796677
223	0x3dbfaf5e	0.093596205
224	0xbe14908c	-0.14508265
225	0x3c98b1b8	0.01863943
226	0xbd9e9fa0	-0.0774529
227	0xbe331a4e	-0.17490503
228	0xbe649f83	-0.22326474
229	0xbd9ec237	-0.07751887
230	0xbc2e9963	-0.010656687
231	0xbe659da9	-0.22423424
232	0x3e1a4f49	0.15069307
233	0xbd8d678a	-0.06904514
234	0xbdb03746	-0.086042926
235	0x3de50a9e	0.11183666
236	0xbcaa7e69	-0.02081223
237	0xbbbcacb7	-0.005757894
238	0x3e395b17	0.18101154
239	0xbdaf2a9c	-0.08553049
240	0x3e3beb2e	0.18351433
241	0x3e443c0a	0.19163528
242	0xbe307145	-0.17230709
243	0xbdb82b35	-0.08992616
244	0x3e2d7813	0.16940336
245	0xbd0e7e5a	-0.034788467
246	0x3c812097	0.01576261
247	0xbe08336c	-0.13300866
248	0xbe437a94	-0.19089729
249	0xbdcba49f	-0.09943508
250	0x3debabbe	0.115073666
251	0x3e0933a0	0.133986
252	0x3cd344d3	0.025789654
253	0x3e3e1e4a	0.18566242
254	0xbe860351	-0.26174405
255	0x3e25b5bf	0.16182612

relations_emb_time.weight f4 [25, 50]
0	0xbd11db0a	-0.035609283
1	0x3c5207c1	0.0128192315
2	0xbd38cd54	-0.04511769
3	0xbd2157f0	-0.039390504
4	0x3bb608e0	0.005555257
5	0x3cc4aebe	0.024009105
6	0xbd23d31d	-0.039996255
7	0x3c7ea146	0.01554138
8	0x3d36cc51	0.044628445
9	0xbd2f366f	-0.04277652
10	0xbb9305a6	-0.0044867573
11	0x3c8dd87d	0.017315144
12	0xbd18bc6d	-0.03728907
13	0x3ccd2d1f	0.02504593
14	0x3d1527eb	0.036415022
15	0xbcdd9313	-0.02704767
16	0xbbe41a75	-0.0069611617
17	0x3d4786cb	0.048712533
18	0xbd02339f	-0.03178751
19	0x3caf3d21	0.021391453
20	0xbc97e5c1	-0.018542172
21	0xbdbc9c55	-0.092095055
22	0x3ce1d3bd	0.027566785
23	0xbc764196	-0.015030285
24	0x3d269941	0.040673498
25	0xbd3a4514	-0.045476034
26	0x3d691957	0.05690893
27	0xbd9ea966	-0.07747154
28	0xbd105190	-0.035234034
29	0x3d59bf22	0.053160794
30	0x3b9db521	0.004812852
31	0xbc26946e	-0.010167224
32	0x3d13a1c5	0.036042947
33	0x3d1d2a98	0.0383707
34	0x3d3f76e5	0.046744246
35	0xbd3ca89c	-0.046059236
36	0xbd6c939f	-0.05775797
37	0x3cb8e0a4	0.022568054
38	0x3d4265fa	0.047460534
39	0x3bca2202	0.006168605
40	0xbd692e1c	-0.05692874
41	0x3cbe7459	0.023248838
42	0xbd054b73	-0.032542657
43	0xbdbe50ac	-0.09292731
44	0xbad98b63	-0.0016597327
45	0x3c9558ea	0.018230874
46	0x3dc8964b	0.09794291
47	0x3ce8ae3f	0.0284034
48	0xbd2a03e4	-0.041507617
49	0x3d3d5505	0.04622366
50	0x3d35f5ba	0.044423796
51	0xbc186835	-0.009302189
52	0xbc292c55	-0.010325511
53	0x3d3d2767	0.046180155
54	0xbcdd5e67	-0.027022554
55	0xbb34537f	-0.0027515588
56	0xbd0a4f23	-0.033766877
57	0x3d017b64	0.031611815
58	0xbc3c65fa	-0.0114989225
59	0x3d9bec7a	0.07613464
60	0xbb739f21	-0.0037173706
61	0x3cc2edbe	0.023795005
62	0x39fd5bba	0.00048324262
63	0xbc92d32e	-0.017922964
64	0x3b24fca1	0.0025174993
65	0xbc9950c7	-0.018715275
66	0x3c56ca97	0.013109825
67	0x3ccdc86e	0.025119986
68	0x3d107b97	0.035274114
69	0xbcb68579	-0.022280442
70	0x3ce92c37	0.028463466
71	0xbda5949d	-0.08084986
72	0xbd7e8669	-0.062139902
73	0xbd7ad651	-0.061239544
74	0xbb3d394a	-0.0028873258
75	0x3d0a6f0d	0.033797313
76	0x3d47dc83	0.04879428
77	0x3dc72d73	0.097254656
78	0x3bcaa78b	0.0061845235
79	0x3d5e548b	0.054279845
80	0xbc4153ec	-0.011799794
81	0x3cbd1f00	0.023086071
82	0xbd821d45	-0.06353239
83	0xbaf27162	-0.0018496925
84	0x3cfa6c1a	0.030569125
85	0xbc32770d	-0.010892642
86	0xbd3b6415	-0.045749743
87	0xbd1fdf7f	-0.0390315
88	0x3d4a49bb	0.04938672
89	0xbce79986	-0.028271448
90	0x3cf02519	0.029314565
91	0x3c34bbbc	0.0110310875
92	0xbc51bf19	-0.012801909
93	0xbc6f16b2	-0.014592813
94	0xbc61fd4a	-0.013793299
95	0xbbd469f9	-0.0064823595
96	0x3d1fa39c	0.03897439
97	0xbd55f227	-0.052232888
98	0x3c40c0ab	0.011764686
99	0x3dafe734	0.0858902
100	0xbc8196ff	-0.01581907
101	0x3d42b647	0.047537114
102	0xbd7c9a1b	-0.061670404
103	0xbc550514	-0.013001699
104	0xbd738270	-0.059450567
105	0xbcf6ee79	-0.03014301
106	0xbd453bcc	-0.04815273
107	0xbcb67d03	-0.022276407
108	0x3d0337a1	0.032035474
109	0x3cddc0ee	0.027069535
110	0xbc804fae	-0.015662994
111	0x3d78c521	0.06073487
112	0xbd1f6de2	-0.03892315
113	0xbbef56d7	-0.0073040533
114	0xbd16937e	-0.036761753
115	0x3d1d7049	0.03843716
116	0x398a07a6	0.0002632711
117	0x3c5e3f8e	0.013564957
118	0xbce1a407	-0.027544035
119	0x3ca0bd0b	0.019621393
120	0x3d2342b0	0.03985852
121	0xbd0c9750	-0.03432399
122	0xbd77bf83	-0.060485374
123	0x3d3878c1	0.045037035
124	0x3d14fb54	0.036372498
125	0xbb70c446	-0.0036738082
126	0xbc95ca4c	-0.01828494
127	0x3d11ec49	0.03562573
128	0x3ca42fd6	0.020042341
129	0xbd3cb7ab	-0.046073597
130	0x3c8cd7ab	0.017192682
131	0x3cdf427b	0.02725338
132	0xbbdb5df9	-0.006694552
133	0xbccf132c	-0.025277697
134	0x3d3ef8ce	0.046623997
135	0x3d57b8f0	0.052666605
136	0xbd03ace4	-0.032147303
137	0x3bc93fb2	0.0061416263
138	0xbb859314	-0.004076371
139	0xbc008b28	-0.007845677
140	0x3d6bb10a	0.057541884
141	0xbcb231e1	-0.0217523
142	0x3ccec70b	0.025241395
143	0x3cbec7de	0.023288663
144	0xbc4505bd	-0.012025294
145	0x3d378444	0.044803873
146	0xbc7d4598	-0.015458487
147	0xbbf1f849	-0.007384334
148	0xbc23b276	-0.009991279
149	0x3d08ff72	0.033446737
150	0xbd65e82b	-0.056129616
151	0xbaafacaa	-0.0013402898
152	0xbc0154f8	-0.007893793
153	0xbd52bc9c	-0.051449403
154	0xbc5f3a6d	-0.01362477
155	0x3c9046aa	0.01761182
156	0xbcca91c6	-0.024727713
157	0xbb144756	-0.0022625527
158	0x3cbc643e	0.022997018
159	0x3d26395e	0.040582053
160	0xbdaa07da	-0.08302279
161	0xbb62e032	-0.0034618494
162	0x3cd964f8	0.026537403
163	0xbca0bec9	-0.019622223
164	0x3d0dc220	0.03460896
165	0xbcaa29ce	-0.020771887
166	0x3dac253c	0.084055394
167	0xbc2acebf	-0.010425269
168	0x3d0f5230	0.03499049
169	0xbd61d870	-0.05513805
170	0xbb715c55	-0.0036828716
171	0xbdd913ae	-0.10599457
172	0xbb23c9f6	-0.0024992204
173	0xbd70c0ab	-0.058777492
174	0xbd390cc2	-0.045178182
175	0x3d8e0fef	0.06936633
176	0xbae11fdb	-0.0017175631
177	0x3d0346f2	0.03205008
178	0x3cdef0db	0.027214458
179	0xbc4511c0	-0.012028158
180	0xbc8b33ca	-0.016992468
181	0xbd5af1e1	-0.05345333
182	0x3dcbca85	0.09950737
183	0x3cba5a6d	0.022748196
184	0x3da022c9	0.07819135
185	0xbcb9c891	-0.022678645
186	0x3bb1ceab	0.005426248
187	0x3bc2233a	0.0059246095
188	0xbd1612cf	-0.03663903
189	0xbc01418d	-0.007889164
190	0xbc9ae22a	-0.018906672
191	0xbc8b0792	-0.016971383
192	0xbca9557e	-0.020670649
193	0xbc7d833a	-0.015473181
194	0x3cbc4d6e	0.02298614
195	0xbcc80496	-0.02441625
196	0xbd2a5b7b	-0.04159115
197	0xbd226ffb	-0.039657574
198	0xbcf80590	-0.03027609
199	0xbcbc2566	-0.022967052
200	0xbd4de31b	-0.050265413
201	0x3d178eea	0.037001528
202	0x3cb26f59	0.02178161
203	0xbc656954	-0.014002163
204	0xbd460878	-0.04834792
205	0x3d230a68	0.039804846
206	0x3d2186c3	0.03943516
207	0xbccd5e26	-0.025069308
208	0xbc16cbd0	-0.009203866
209	0x3d82c683	0.06385519
210	0x3d18f832	0.037346072
211	0x3d3b2915	0.045693476
212	0x3d085842	0.033287294
213	0x3b63e2a2	0.0034772535
214	0x3d3f65f0	0.046728075
215	0x3c7048ab	0.014665763
216	0x3c8d6e15	0.017264405
217	0xbbec2255	-0.007206241
218	0xbd2a4aae	-0.041575126
219	0x3c33af41	0.010967077
220	0xbcb07cb7	-0.021543844
221	0x3d5fbfe9	0.05462638
222	0x3cc18d6e	0.02362701
223	0x3c9db124	0.019249506
224	0xbcb442ea	-0.022004563
225	0xbd7e0550	-0.062016785
226	0xbcd06c8e	-0.025442388
227	0xbc742908	-0.014902361
228	0x3d988744	0.07447675
229	0xbd4dec6a	-0.05027429
230	0x3bff2f82	0.007787646
231	0x3d3f5a5f	0.046717044
232	0xbd14de68	-0.036344916
233	0x3b07d4a2	0.0020726104
234	0xbcaa6a37	-0.0208026
235	0x3d1b41fc	0.037904724
236	0x3d0dc802	0.03461457
237	0x3d172018	0.03689584
238	0x3c9fd039	0.019508468
239	0xbc7cf9e7	-0.015440441
240	0x3d13513d	0.035966147
241	0xba0e3f80	-0.00054263324
242	0xbd2a2fea	-0.0415496
243	0xbc8de533	-0.017321205
244	0x3cadfff3	0.02124021
245	0x3cab3bfd	0.020902628
246	0x3d05e90e	0.03269296
247	0x3d11136d	0.035418916
248	0x3b2f651c	0.0026763147
249	0xbc5444ed	-0.012955886
250	0xbc3f2386	-0.011666184
251	0x3d490015	0.049072344
252	0xbbb5d872	-0.005549484
253	0xbcd57683	-0.026057487
254	0xbc6d7e46	-0.014495438
255	0xbca141be	-0.019684669

relations_emb_category.weight f4 [149, 50]
0	0x3d1fba07	0.03899577
1	0x3d591074	0.052994207
2	0x3ba62dc6	0.0050713746
3	0xbcae3c15	-0.021268884
4	0xbd92bc34	-0.07164803
5	0x3d833df8	0.06408304
6	0xbc5aeeb3	-0.013362574
7	0xbb976a78	-0.0046208464
8	0x3d632370	0.055453718
9	0xbc61e0e0	-0.0137865245
10	0x3cdd23a8	0.026994541
11	0xbd2290c4	-0.03968884
12	0x3d1ee8e2	0.038796313
13	0xbca1ee63	-0.019766992
14	0xba7b2665	-0.00095806114
15	0x39d116d4	0.00039880595
16	0x3d51b4b5	0.051197726
17	0xbcb7f880	-0.022457361
18	0xbcac415c	-0.02102726
19	0x3b200c04	0.0024421224
20	0x3c69189a	0.014227057
21	0xbd47ac1a	-0.048748113
22	0xbc41608c	-0.011802804
23	0xbd05aad8	-0.032633632
24	0xbccb16a1	-0.024791064
25	0xbba98f5b	-0.00517456
26	0xbca2f766	-0.01989336
27	0x3bbad99e	0.0057022115
28	0x3cdbe7e1	0.026843967
29	0x3c79b76a	0.015241483
30	0xbce750b8	-0.028236732
31	0xbc8ba0a7	-0.017044378
32	0x3c5a13d7	0.013310394
33	0xbc7f4fe3	-0.015583011
34	0x3d0bf222	0.034166463
35	0xbd3d55e2	-0.046224482
36	0x3ba7cf56	0.005121152
37	0x3d662dac	0.0561959
38	0x3c290da2	0.010318192
39	0x3bdf5f68	0.0068167932
40	0xb865a7f3	-5.475427e-05
41	0xbce4f26f	-0.027947633
42	0xbc859e72	-0.016310904
43	0xbc16fd99	-0.009215736
44	0x3bbe9ad5	0.0058167973
45	0x3c2b2c82	0.010447623
46	0x3befc045	0.0073166215
47	0x3d25afac	0.040450737
48	0x3c76e544	0.01506931
49	0xbbd1643e	-0.0063901236
50	0x3d525288	0.05134824
51	0x3c1decf5	0.0096390145
52	0x3c60923b	0.013706739
53	0x3d1370f7	0.035996404
54	0xbd22047f	-0.03955507
55	0x3b96013a	0.004577783
56	0x3c1123f5	0.0088586705
57	0xbccd0dec	-0.025031053
58	0x3caef016	0.021354716
59	0x3cf3255d	0.029680902
60	0x3d44e501	0.048069958
61	0x3c1409db	0.009035553
62	0xbc298569	-0.010346749
63	0x3d2f5c9d	0.042812932
64	0x3ca3c075	0.019989232
65	0xbbc08332	-0.0058750147
66	0x3d01e2c3	0.031710397
67	0xba60d02a	-0.0008575941
68	0x3bcfb767	0.006339002
69	0x3bbd0b1f	0.005769148
70	0xbcb3cdeb	-0.021948775
71	0xbadd7ce2	-0.001689818
72	0x3c5421cc	0.012947511
73	0x3c83722e	0.016045656
74	0x3ced397f	0.02895808
75	0x3cd3be9b	0.025847724
76	0x3cd746c6	0.026278865
77	0xbcdd7a44	-0.02703584
78	0x3c9538f6	0.018215638
79	0xbb0e6fbc	-0.002173408
80	0x3c8d2fc8	0.017234698
81	0x3d23b23e	0.039964907
82	0xbc44aef8	-0.012004606
83	0x3c9699e2	0.018383924
84	0x3d5680e7	0.052369025
85	0xbc9f27e9	-0.01942821
86	0xbd371ba2	-0.044704087
87	0x3c20f7ca	0.0098247025
88	0x3d370948	0.044686586
89	0x3ca496b2	0.020091388
90	0xbd0f6740	-0.035010576
91	0xbd129e62	-0.035795577
92	0x3d2c3d9b	0.04205094
93	0x3c2b8a62	0.010470005
94	0x3c656f98	0.014003657
95	0x3c305525	0.010762488
96	0x3b0d6677	0.0021575966
97	0x3be09ad2	0.0068543935
98	0x3c57f940	0.013181984
99	0xbcf1f823	-0.029537266
100	0xbc96d129	-0.018410282
101	0xb990aea2	-0.00027595932
102	0xbd621539	-0.05519602
103	0xbb1211ec	-0.0022288514
104	0x3c961716	0.018321555
105	0x3d67339e	0.05644571
106	0xbdc5c749	-0.09657151
107	0x3a504c63	0.0007945953
108	0x3d53515c	0.051591262
109	0xbc7db7ae	-0.015485687
110	0xbc0075ea	-0.007840613
111	0xbba63d82	-0.0050732503
112	0xbcb5cc0d	-0.022192026
113	0x3d113c27	0.035457756
114	0xbdcecf6c	-0.10098156
115	0x3bec2396	0.0072063906
116	0x3d1bc560	0.03803003
117	0xbd002a10	-0.031290114
118	0x3d70c1b7	0.05877849
119	0xbd2902b5	-0.041262347
120	0x3d424caf	0.047436412
121	0xbb8ec22b	-0.0043566427
122	0x3c025bbe	0.007956443
123	0xbd0c128a	-0.034197368
124	0x3c8b0504	0.016970165
125	0xbd429f45	-0.047515173
126	0x3cbf383a	0.02334224
127	0x3d17fbd2	0.03710539
128	0x3c32af6a	0.01090608
129	0xbd1f1d91	-0.038846556
130	0x3ccdf74a	0.02514233
131	0x3c35c192	0.011093514
132	0x3cd29232	0.025704477
133	0x3c4d4651	0.012528972
134	0x3cce0006	0.025146496
135	0x3ce72567	0.028216077
136	0xbd76981c	-0.060203657
137	0xbbffc90d	-0.0078059495
138	0xbcb57605	-0.022151003
139	0x3d0edcaa	0.03487841
140	0xbd006bd0	-0.031352818
141	0x3d004738	0.03131792
142	0x3d22533c	0.03963016
143	0xbd80357c	-0.06260201
144	0x387b71d5	5.9949078e-05
145	0x3cbcfee9	0.02307077
146	0x3cee6307	0.029099954
147	0xbd2fda86	-0.04293301
148	0x3ccb82de	0.024842676
149	0xbc2ab0cd	-0.010418129
150	0xbd03b1b4	-0.032151893
151	0x3d3cf3ad	0.046130825
152	0x3b959e66	0.0045660017
153	0xbc697101	-0.014248134
154	0xbb236a05	-0.0024935019
155	0xbcb76639	-0.02238761
156	0x3d0de1f1	0.034639303
157	0xbd315da4	-0.043302193
158	0x3c842b71	0.016133996
159	0xbc145fd2	-0.0090560485
160	0x3d20b7c0	0.039237738
161	0xbc4a2984	-0.012339
162	0xbc70d110	-0.014698282
163	0x3c338ca0	0.010958821
164	0xbc4b1528	-0.012395181
165	0xbc9997d2	-0.018749151
166	0x3c6a40a2	0.014297636
167	0x3c98ea52	0.01866642
168	0x3d065da1	0.032804135
169	0xbcde0e60	-0.027106464
170	0x3cd2ab00	0.025716305
171	0xbd0b832e	-0.03406065
172	0xbbbf160d	-0.005831486
173	0xbce352bd	-0.027749414
174	0x3cdfc9d4	0.027317919
175	0xbcae403b	-0.021270862
176	0x3ade4684	0.0016958271
177	0xbc471e91	-0.012153284
178	0x3c9cb3cb	0.0191287
179	0x3ccb96d5	0.024852196
180	0xbcfb562f	-0.030680744
181	0xbbc8327b	-0.0061095334
182	0x3cc50d09	0.024054067
183	0x3c959a41	0.01826203
184	0x3b754ea7	0.0037430914
185	0x3d19bc8d	0.03753333
186	0xbc2be4b1	-0.010491536
187	0xbbd3ff3d	-0.0064696358
188	0x3d11188b	0.035423797
189	0x3d1a5cdf	0.037686225
190	0xbd416ce6	-0.047222994
191	0x3caff1b4	0.021477558
192	0xbcd723f4	-0.026262261
193	0x3c29e7ee	0.010370238
194	0xbcae3b5f	-0.021268545
195	0xbcebf3a0	-0.028802693
196	0x3c6517c1	0.013982714
197	0xbb01a1cb	-0.0019780274
198	0xbcc9b87c	-0.024624102
199	0x3c11ebbc	0.008906301
200	0x3c552135	0.013008405
201	0xbd70de67	-0.05880585
202	0xbcb8cc80	-0.02255845
203	0xbc215060	-0.009845823
204	0x3b1d529b	0.0024005536
205	0x3cbe95a5	0.023264715
206	0xbcdb54f0	-0.0267739
207	0x3aba4cd2	0.0014213568
208	0xbd3793e1	-0.044818763
209	0xbc6db8fa	-0.014509434
210	0xbd1dca6f	-0.038523134
211	0xbd0cdeda	-0.034392215
212	0xbc3d5f8c	-0.011558425
213	0x3c311dee	0.010810358
214	0xbce0f82b	-0.027462086
215	0x3b690790	0.0035557486
216	0xbd768443	-0.06018473
217	0xbc770681	-0.015077234
218	0x3d5e1c13	0.054225992
219	0xbdac7772	-0.0842122
220	0xbbfeb687	-0.007773224
221	0x3d257ccf	0.04040223
222	0x3d70431a	0.058657743
223	0x3cbf0e17	0.023322148
224	0x3b750798	0.003738856
225	0x3d3d9a85	0.04628994
226	0xbc8d4bc0	-0.017248034
227	0xbd7a64f6	-0.06113144
228	0x3cce4431	0.025179
229	0xbd041598	-0.032247156
230	0x3bb045d7	0.0053794193
231	0x3cc3f768	0.023921683
232	0x3cf21f97	0.029556079
233	0x3ca01dbd	0.01954543
234	0x3d218697	0.039434996
235	0x3c892c9b	0.016744902
236	0x3cfa2f47	0.030540122
237	0xbaaac338	-0.001302815
238	0x3af5acb2	0.0018743484
239	0xbd15245e	-0.036411636
240	0xbd0ed973	-0.034875344
241	0x39e0d3da	0.0004288245
242	0xbc998c0a	-0.018743534
243	0xbd1faa14	-0.03898056
244	0x3cf7a4db	0.030229976
245	0x3cdd27b8	0.026996478
246	0xbd76ada5	-0.060224194
247	0x3c5c5aff	0.01344943
248	0x3da8b206	0.0823708
249	0xbd3b7609	-0.045766864
250	0xbd8ad1f4	-0.06778327
251	0x3cbc469f	0.022982894
252	0xbd9234c9	-0.07138974
253	0x3d4242f0	0.047427118
254	0x3d1d23cc	0.038364217
255	0xbce32d99	-0.027731704

relations_emb_clusters.weight f4 [11, 50]
0	0x3d3b3a63	0.04570998
1	0x3d369855	0.04457887
2	0x3de0c2d4	0.109746605
3	0xbd47b362	-0.048755057
4	0x3ca0454c	0.019564293
5	0xbcc49327	-0.023995949
6	0x3cade16b	0.021225652
7	0xbcd75ce3	-0.026289409
8	0x3ce0f24c	0.027459286
9	0xbd7580a4	-0.059937134
10	0xbbe777ef	-0.0070638577
11	0x3c4f7a84	0.012663487
12	0x3c481037	0.012210897
13	0xbd81c9d0	-0.06337321
14	0x3c959bb1	0.018262716
15	0xbcc35ae9	-0.02384706
16	0xbab55529	-0.0013834584
17	0x3d5e9bd9	0.054347847
18	0xbd9752eb	-0.07388862
19	0xbd59d09c	-0.05317746
20	0xbca6064a	-0.02026667
21	0xbdb566e8	-0.088575184
22	0xbd65ce80	-0.056105137
23	0xbd228e2c	-0.039686367
24	0xbacffd62	-0.0015868361
25	0x3da9e731	0.082960494
26	0xbc739d18	-0.014868997
27	0x3d50f84e	0.05101805
28	0xbb8cf329	-0.004301448
29	0xbd1c5238	-0.038164347
30	0xbcd1fb6a	-0.025632579
31	0xbcfc6d9f	-0.03081399
32	0x3d7c3b45	0.06157996
33	0xbd156329	-0.03647152
34	0x3b645246	0.0034839078
35	0xbd3bc385	-0.04584076
36	0xbd0422b7	-0.03225967
37	0x3df6b081	0.12045384
38	0xbc0366c7	-0.0080201095
39	0x3d0730ac	0.0330054
40	0x3ce35ac2	0.027753238
41	0xbd8047b3	-0.062636755
42	0xbda4532c	-0.08023676
43	0xbd1ac88b	-0.03778891
44	0x3cc42e9e	0.02394801
45	0x3d9c2dff	0.076259606
46	0x3c03c342	0.008042159
47	0x3d0be84e	0.03415709
48	0x3c4b956e	0.0124257635
49	0x3b810c1b	0.0039382107
50	0xbd1af2f8	-0.03782937
51	0xbd714058	-0.058899254
52	0x3ca2982c	0.019847952
53	0x3dd4c6e5	0.103894986
54	0xbd6ef877	-0.058342423
55	0xbd008321	-0.031375054
56	0xbc9f8b7d	-0.019475693
57	0xbcc89dac	-0.024489246
58	0x3de3bcc1	0.11119986
59	0x3d478221	0.048708085
60	0xbe325caa	-0.17418161
61	0xbcc641df	-0.024201332
62	0xbdf2fba6	-0.118644044
63	0x3cc3836f	0.023866383
64	0x3be8a2d4	0.0070994888
65	0xbdb188a6	-0.08668642
66	0xbd1ff17d	-0.03904866
67	0x3e202716	0.1563991
68	0xbd969374	-0.07352343
69	0x3e0b5036	0.13604817
70	0x3d506fa2	0.05088771
71	0xbd79b0f0	-0.060959756
72	0xbd86308b	-0.065522276
73	0x3cbcf639	0.023066627
74	0x3d7457a2	0.059653886
75	0x3df376af	0.118878715
76	0x3d6c66c3	0.05771519
77	0xbc96592b	-0.018353065
78	0xbb81b587	-0.0039584073
79	0x3dc1658e	0.09443198
80	0xbd8c66da	-0.06855555
81	0x3d92c081	0.071656235
82	0x3d3ccbd2	0.046092816
83	0x3d008d38	0.031384677
84	0x3db1ad3a	0.086756185
85	0xbb666326	-0.0035154312
86	0xbda1f6a4	-0.07908371
87	0xbd5a6157	-0.053315487
88	0x3d50b7ee	0.05095666
89	0x3c84e647	0.016223086
90	0x3d13c1de	0.036073558
91	0x3e6708ee	0.22562
92	0x3dda93a5	0.10672692
93	0xbda71835	-0.08158914
94	0xbcfc2bb2	-0.030782554
95	0xbcef15ec	-0.029185258
96	0x3d6c1fa1	0.05764735
97	0x3ddeda05	0.10881428
98	0x3e059bb9	0.13047685
99	0xbdcd1056	-0.100128815
100	0xbda0a335	-0.07843629
101	0xbc6a5f43	-0.014304939
102	0xbe06c700	-0.1316185
103	0xbe246ca7	-0.16057073
104	0xba3bd1c6	-0.00071647426
105	0x3de94964	0.11390951
106	0xbd0d8920	-0.0345546
107	0xbdaaf554	-0.08347574
108	0xbbeaac21	-0.0071616326
109	0x3caf991b	0.021435311
110	0xbc42d55b	-0.011891688
111	0x3bf71802	0.0075407038
112	0x3df55cee	0.119806156
113	0x3dd1d58d	0.1024581
114	0x3d560155	0.052247364
115	0xbde2521c	-0.11050817
116	0x3df84609	0.12122733
117	0xba8165f4	-0.0009872303
118	0xbcdaa169	-0.026688294
119	0xbda5fc15	-0.081047215
120	0x3d6cde33	0.057829093
121	0xbcec1094	-0.028816499
122	0xbd483398	-0.04887733
123	0x3bce7887	0.006300989
124	0xbd138960	-0.036019683
125	0xbd87b351	-0.06625999
126	0x3bdaa27b	0.006672201
127	0xbd9c1f57	-0.07623165
128	0xbd1d4a2e	-0.03840082
129	0x3c9e415e	0.019318279
130	0x3db4c83f	0.088272564
131	0xbc61b0de	-0.013775079
132	0x3ab318e5	0.0013664035
133	0xbde20156	-0.11035411
134	0x3cada5b3	0.021197176
135	0x3c8f435f	0.01748818
136	0x3d1cdac2	0.03829456
137	0xbda25ce8	-0.07927877
138	0x3d2918cb	0.04128341
139	0xbdf06c4c	-0.11739406
140	0xbc698be9	-0.014254549
141	0xbbe2640b	-0.0069088987
142	0x3d286539	0.04111216
143	0xbdcd24db	-0.10016795
144	0xbca58e04	-0.02020932
145	0xbd915f0d	-0.070982076
146	0xbdfa82a3	-0.12231948
147	0xbdd2bcfe	-0.10289954
148	0x3d15ec56	0.03660234
149	0xbd715dfb	-0.058927517
150	0xbc075776	-0.008260598
151	0x3cb85e19	0.022505807
152	0xbd3ed139	-0.04658625
153	0x3caef358	0.02135627
154	0xbcc86cdb	-0.024465969
155	0xbc07f60e	-0.00829841
156	0xbc8cb7d7	-0.017177505
157	0xbbbd8b76	-0.0057844473
158	0xbc0d13b9	-0.008610659
159	0xbba7f566	-0.0051256893
160	0x3d4238c8	0.047417432
161	0x3d612810	0.054969847
162	0xbc740230	-0.0148931
163	0x3ba014d4	0.0048852954
164	0x3c3fa98e	0.01169814
165	0xbc23994d	-0.00998528
166	0xbc978fe2	-0.018501226
167	0x3cea45fd	0.028597826
168	0x3d357f79	0.04431102
169	0x3d097b3d	0.033564795
170	0x3c3231c4	0.010876123
171	0x3c8a27dd	0.016864711
172	0xbcd6be11	-0.026213678
173	0x3dc7bde7	0.09753018
174	0x3c427357	0.0118683195
175	0x3ccc4a03	0.024937635
176	0x3cb9963e	0.022654649
177	0x3bed0858	0.0072336607
178	0xbbd1ce07	-0.006402734
179	0xbd8a0d49	-0.06740815
180	0x3d1bffc7	0.038085725
181	0xbd999b29	-0.075002976
182	0xbd56c280	-0.052431583
183	0x3c300824	0.010744128
184	0x3cc39ae2	0.023877565
185	0x3bb9aa74	0.0056660715
186	0x3da89282	0.08231069
187	0xbd637fca	-0.05554179
188	0x3c449a14	0.011999626
189	0x3d9823c1	0.074286945
190	0xbd80b6ea	-0.06284888
191	0x3d450b0d	0.048106242
192	0x3c07778d	0.008268249
193	0x3c6be8a4	0.014398728
194	0xbc769c48	-0.015051909
195	0x3ca44987	0.020054592
196	0x3d9f772a	0.077864006
197	0xbd25c6fc	-0.04047297
198	0xbd2afa7e	-0.041742794
199	0x3cd1bdcb	0.025603196
200	0xbdab61ad	-0.083682396
201	0xbdb0e44e	-0.08637296
202	0x3d6ee790	0.058326304
203	0xbd23a8b2	-0.039955802
204	0xbd715fdb	-0.058929306
205	0x3d30b320	0.043139577
206	0x3d492aed	0.049113203
207	0xbd4d64c9	-0.050144944
208	0xb9866375	-0.00025632573
209	0xbd1ed021	-0.038772706
210	0x3d4e5a80	0.050379276
211	0x3d7f36a7	0.06230798
212	0xbb9ad923	-0.0047255917
213	0x3d3120a6	0.043244027
214	0xbd9af631	-0.075664885
215	0x3c9b5461	0.018961133
216	0x3dbcfcbc	0.09227893
217	0x3d2f8df9	0.042860005
218	0x3cf260d2	0.029587183
219	0xbcfbc03f	-0.030731319
220	0xbc8556f5	-0.016276816
221	0x3d8dd350	0.0692507
222	0xbc8d39fa	-0.01723956
223	0x3d3347a4	0.043769494
224	0x3cdc60e7	0.026901675
225	0xbd69d64c	-0.057089135
226	0x3c677d91	0.014129058
227	0x3bc2f0a4	0.0059490968
228	0x3d4252bb	0.04744218
229	0x3cd58390	0.02606371
230	0xbc6dd0e7	-0.014515138
231	0xbbf44ae6	-0.0074552177
232	0x3d20a9ea	0.039224543
233	0x3d0a1cfa	0.03371904
234	0xbdb4b739	-0.088240094
235	0x3aa4efda	0.0012583688
236	0x3cb8e39c	0.02256947
237	0x3c5e8338	0.01358109
238	0xbd9c695a	-0.07637282
239	0xbdbd1327	-0.09232169
240	0xbdb128d4	-0.086503655
241	0xbc2401b5	-0.010010173
242	0xbda7d995	-0.08195797
243	0x3d0c477e	0.034247868
244	0xbcc13fc1	-0.02358997
245	0x3c3b1905	0.011419539
246	0xbd937130	-0.07199323
247	0xbd2508ad	-0.040291477
248	0xbd083ba5	-0.033260006
249	0xbc57d7e2	-0.013174029
250	0xbde70318	-0.11279887
251	0x3d2c9631	0.04213542
252	0x3bfa0d73	0.007630998
253	0x3c3fb207	0.01170016
254	0xbde1f8b2	-0.11033763
255	0xbdf5e025	-0.12005643

relations_emb_poi_type.weight f4 [3, 50]
0	0xbdd7a4f9	-0.10529513
1	0xbd589dc9	-0.05288485
2	0xbe139c14	-0.14415008
3	0xbcd70795	-0.026248733
4	0xbe33d705	-0.17562492
5	0xbac3e402	-0.0014945271
6	0x3d0de39c	0.034640893
7	0xbe3bde56	-0.18346533
8	0x3db06a0b	0.08613976
9	0x3ddfaad4	0.10921255
10	0xbd357f05	-0.04431059
11	0x3dc33d29	0.0953315
12	0xbd9460f0	-0.07245052
13	0x3e203c37	0.1564797
14	0x3dcbe745	0.099562205
15	0xbd0e5f13	-0.03475864
16	0x3b9ad8ae	0.0047255373
17	0x3dbba187	0.09161668
18	0xbcb08e58	-0.02155225
19	0xbe0cb17f	-0.13739584
20	0x3dd256bd	0.1027045
21	0xbcfdcdb4	-0.030981876
22	0xbd616bd6	-0.05503448
23	0x3dcb9c3a	0.09941907
24	0x3dffd179	0.124911256
25	0xbc14f91b	-0.0090925945
26	0x3d5708bc	0.052498564
27	0xbd2d7825	-0.042350907
28	0xbd496591	-0.049169127
29	0xbd502345	-0.050814886
30	0xbc3e0282	-0.011597278
31	0x3dc2567d	0.094891526
32	0xbdec7e8d	-0.11547575
33	0xbd406c22	-0.046978123
34	0x3e031c7f	0.12803839
35	0x3c87fc80	0.016599894
36	0xbd3f1d0f	-0.04665857
37	0x3d64120c	0.055681273
38	0x3d537b85	0.05163147
39	0xbe0f1cf9	-0.13975896
40	0xba9382d9	-0.0011254206
41	0x3e193fce	0.14965746
42	0xbdad7333	-0.08469238
43	0xbe129fe8	-0.14318812
44	0xbd5bb3d8	-0.05363831
45	0xbd94407f	-0.07238864
46	0xbcf64244	-0.030060895
47	0x3e135083	0.14386182
48	0x3c1c0e50	0.009524897
49	0xbd91dd3d	-0.07122276
50	0xbe2eaa6f	-0.17057203
51	0x3dedce55	0.1161162
52	0xbdbcf381	-0.09226132
53	0xbc2d4cf1	-0.010577426
54	0xbe5d473a	-0.21609202
55	0x3d2c132d	0.042010475
56	0xbd02e64a	-0.031957902
57	0xbd18d3ab	-0.037311237
58	0x3ce6e702	0.028186325
59	0xbd6019c1	-0.05471206
60	0x3d34e32a	0.044161953
61	0x3db231dd	0.08700917
62	0xbd2d70ef	-0.04234403
63	0x3d835c5e	0.06414102
64	0xbdbe8152	-0.0930201
65	0x3d37dc8d	0.044888068
66	0x3cfa37c5	0.030544171
67	0xbd1d75e3	-0.038442504
68	0xbdc72f61	-0.09725834
69	0x3de400c6	0.1113296
70	0x3e4d7732	0.20065
71	0xbdab8b1f	-0.083761446
72	0x3db10901	0.086442955
73	0xbe184edf	-0.14873837
74	0x3dc30628	0.095226586
75	0x3e295273	0.16535358
76	0x3e06a481	0.13148691
77	0x3d03cc9e	0.03217756
78	0xbde99588	-0.11405474
79	0xbd6236b5	-0.055227954
80	0x3e1e310b	0.15448396
81	0x3cbd0a5a	0.023076225
82	0x3e2c08eb	0.16800277
83	0x3dad8c1e	0.08473991
84	0x3dc9d440	0.098549366
85	0x3d15b3d2	0.036548443
86	0xbdd70b71	-0.10500229
87	0x3d3aea5a	0.04563365
88	0xbd24fd7d	-0.040280808
89	0xbcb378bf	-0.021908162
90	0x3d31373a	0.04326556
91	0xbcbe0248	-0.023194447
92	0xbe0cc32e	-0.1374633
93	0x3e18d06f	0.14923261
94	0xbcc6b633	-0.024256801
95	0x3da43589	0.080180235
96	0x3db183b7	0.08667701
97	0xbd04c5bd	-0.03241514
98	0xbde0eefd	-0.109830834
99	0x3dbb5024	0.09146145
100	0xbf07fe0e	-0.5312203
101	0xbf393a7e	-0.72354877
102	0xbf0c7b6a	-0.54875815
103	0xbf1b9b91	-0.6078425
104	0xbe928e20	-0.28624058
105	0x3f1ce71c	0.61290145
106	0xbf52c1f4	-0.823272
107	0xbf49203b	-0.78564805
108	0xbe7e0d1c	-0.24809688
109	0x3edd3b08	0.432091
110	0xbd668df0	-0.056287706
111	0xbed334e7	-0.412513
112	0x3f444e0e	0.766816
113	0x3e2b7888	0.16745198
114	0xbea2d60e	-0.31803936
115	0x3ee09ae8	0.43868184
116	0xbf2d1a87	-0.676186
117	0x3f547ea8	0.8300576
118	0x3e98494c	0.2974342
119	0x3f231e48	0.6371808
120	0x3ec56cb8	0.38559508
121	0x3dcebb08	0.10094267
122	0xbf00b11b	-0.5027024
123	0xbdf6c0e0	-0.12048507
124	0x3e9c2244	0.30494893
125	0x3ec23464	0.37930596
126	0xbf40dd7c	-0.7533796
127	0x3f2f6030	0.68506145
128	0x3e9ec30c	0.31008184
129	0x3f2c6b98	0.67351675
130	0x3f341090	0.7033777
131	0xbea77e80	-0.327137
132	0x3edaa340	0.42702675
133	0xbed2f4ae	-0.412023
134	0x3ebba288	0.3664744
135	0x3f0d4902	0.55189526
136	0x3e447c50	0.19188046
137	0x3dabbb68	0.08385354
138	0x3ea1fd10	0.31638384
139	0x3e04da18	0.12973821
140	0x3e94c5b8	0.29057097
141	0xbf3e6df5	-0.7438653
142	0xbe3d62d4	-0.18494731
143	0xbf4612ea	-0.7737261
144	0x3ded3f90	0.11584389
145	0xbeddcbf3	-0.43319663
146	0xbefc68ee	-0.49298805
147	0xbdf04e40	-0.11733675
148	0x3ece8470	0.40335417
149	0x3e8e7b24	0.27828324

item_att_model.fc1.weight f4 [64, 100]
0	0xbde1b696	-0.11021154
1	0xbe2927a3	-0.16519026
2	0xbdd16e14	-0.10226074
3	0xbcd13fb0	-0.025543064
4	0xbde40957	-0.11134594
5	0x3cf23d80	0.029570341
6	0x3de9773e	0.11399697
7	0xbce65ab8	-0.02811943
8	0xbd8d5ac3	-0.06902077
9	0x3de08c2e	0.10964237
10	0xbb30f200	-0.0026999712
11	0x3d937772	0.07200517
12	0x3cf29a20	0.029614508
13	0xbd250d30	-0.04029578
14	0x3e1c3583	0.15254788
15	0xbc0ceac0	-0.008600891
16	0x3dee8192	0.11645807
17	0x3e414c9f	0.18876885
18	0x3cb6a6d8	0.022296354
19	0x3e1be1b7	0.15222822
20	0xbde1ee30	-0.11031759
21	0xbda968a9	-0.082719155
22	0xbd0bc34c	-0.034121796
23	0x3d8d28fa	0.06892581
24	0xbdcb8219	-0.099369235
25	0x3dbb2ebe	0.09139775
26	0x3db0d0a2	0.086335436
27	0xbdc09b10	-0.09404576
28	0x3e1f60db	0.15564291
29	0xbe2dd628	-0.16976225
30	0x3d00df84	0.03146316
31	0xbc67b890	-0.014143124
32	0x3dedd506	0.116128966
33	0x3e2d28b5	0.1691006
34	0x3d428dc0	0.047498465
35	0xbbbfac40	-0.005849391
36	0xbe2a9c96	-0.16661295
37	0x3dd89dea	0.10576995
38	0x3dc14a42	0.09437992
39	0xbb78af00	-0.0037946105
40	0xbe1eea70	-0.15519118
41	0x3d8c91ba	0.06863733
42	0xbde1399d	-0.10997317
43	0xbdb94308	-0.09045988
44	0x3dad04ae	0.08448158
45	0xbe368656	-0.17824683
46	0x3d7855fc	0.060628876
47	0xbd2bece0	-0.04197395
48	0xbdf96b95	-0.12178723
49	0x3dad487a	0.084610894
50	0xbde04ba8	-0.1095193
51	0xbd86a758	-0.06574887
52	0x3d278344	0.04089667
53	0xbd687ec4	-0.056761518
54	0xbd5b9fe4	-0.05361928
55	0x3e3cdb73	0.18443088
56	0xbcb239c0	-0.021756053
57	0xbe219716	-0.15780291
58	0x3c5b6360	0.013390392
59	0xbe3119c0	-0.17294979
60	0xbd8df8c4	-0.06932214
61	0xbe1dbcf5	-0.15404113
62	0xbd2ed8c8	-0.042687207
63	0xbe06ddec	-0.13170594
64	0x3df1b28a	0.11801632
65	0xbcaf9750	-0.021434456
66	0xbd196884	-0.03745319
67	0xbe1cd8d5	-0.1531709
68	0xbd540bbc	-0.051769003
69	0x3dd95736	0.10612337
70	0x3e2abc4d	0.16673394
71	0xbdf9f345	-0.12204603
72	0x3e340465	0.17579801
73	0xbd9dc54b	-0.07703646
74	0x3d84ea0a	0.06489952
75	0xbda626e0	-0.081128836
76	0xbd9652f3	-0.0734004
77	0xbd903343	-0.070410274
78	0xbe355806	-0.1770936
79	0x3e2408f3	0.16019039
80	0xbe3addde	-0.18248698
81	0x3c833ad8	0.01601927
82	0xbd9176f8	-0.071027696
83	0x3e137f89	0.1440412
84	0x3d0f26b0	0.034949005
85	0x3d023498	0.03178844
86	0x3d4efe34	0.050535396
87	0x3d74538c	0.05964999
88	0xbe19f90b	-0.15036409
89	0xbdac932a	-0.08426507
90	0x3b21dd80	0.0024698675
91	0x3d81c566	0.06336479
92	0xbd82a9fe	-0.0638008
93	0x3dd037c6	0.10166888
94	0xbdc07b50	-0.0939852
95	0xbe0ee034	-0.13952714
96	0x3e433cf5	0.19066222
97	0x3e299e83	0.16564374
98	0x3e43d4d1	0.19124152
99	0xbde571f3	-0.11203375
100	0xbd407f20	-0.046996236
101	0xbda6257d	-0.08112619
102	0xbb135600	-0.002248168
103	0xbc98b528	-0.01864107
104	0x3d4df090	0.050278246
105	0x3d8ca926	0.068682
106	0xbdaeaeb0	-0.08529413
107	0x3e232c15	0.15934785
108	0xbe3a4acd	-0.18192597
109	0x3e2d3879	0.16916074
110	0xbe08751d	-0.13325925
111	0x3d42128c	0.04738097
112	0xbd89cf97	-0.06729048
113	0xbdf1ed80	-0.11812878
114	0xbde322f3	-0.110906504
115	0xbd32fc80	-0.043697834
116	0x3e21db19	0.15806235
117	0xbdfad3c3	-0.122474216
118	0x3c75fb30	0.015013501
119	0xbdd19891	-0.10234178
120	0x3e27dcf5	0.16392882
121	0x3e3176c9	0.17330469
122	0xbd86ce14	-0.06582275
123	0xbe149316	-0.14509234
124	0xbe0d00a6	-0.13769779
125	0x3dba351e	0.090921625
126	0x3e14c6ad	0.14528914
127	0x3d9fd2c6	0.07803874
128	0x3d476704	0.048682228
129	0x3e072b33	0.13200073
130	0xbe03c1b2	-0.12866858
131	0x3cc4e778	0.024036154
132	0xbd269d2c	-0.040677235
133	0x3ddaadf6	0.10677712
134	0xbe2f2f62	-0.17107919
135	0x3e397ed5	0.18114789
136	0x3e24f0c3	0.16107468
137	0x3e29823d	0.16553588
138	0x3d266e74	0.04063268
139	0x3ac28c80	0.0014842898
140	0xbd59d008	-0.05317691
141	0xbdf39fde	-0.118957266
142	0x3e1439af	0.1447513
143	0x3b37cc00	0.0028045177
144	0x3e3de687	0.1854497
145	0x3da6c0ce	0.08142243
146	0xbba585e0	-0.0050513595
147	0xbddf2094	-0.10894886
148	0xbdb39ca6	-0.08770113
149	0xbd91b6b3	-0.07114925
150	0x3e292005	0.1651612
151	0x3e3e9deb	0.18614928
152	0x3d60cc64	0.054882422
153	0xbdbff067	-0.09372025
154	0xbb5a01c0	-0.0033265203
155	0xbd78335c	-0.060595855
156	0xbdb3f213	-0.08786406
157	0xbe03d23a	-0.12873164
158	0x3d7e054c	0.06201677
159	0x3e07aafb	0.13248818
160	0x3dab59ea	0.08366759
161	0xbd6fddf4	-0.05856128
162	0xbdcd4d45	-0.100245036
163	0xbe01358b	-0.12618081
164	0xbe0f7235	-0.1400841
165	0xbdd27181	-0.102755554
166	0xbe20b48b	-0.15693872
167	0x3c855f78	0.016280875
168	0x3ca2b690	0.019862443
169	0xbdfa814d	-0.122316934
170	0x3c8295e0	0.015940607
171	0x3e0aafbf	0.13543604
172	0xbe305790	-0.17220902
173	0x3d881ad2	0.066457406
174	0x3c875488	0.0165198
175	0xbe01e100	-0.12683487
176	0x3c70f5c0	0.014707029
177	0x3da14412	0.078743115
178	0xbdd737d9	-0.10508699
179	0xbd5eb054	-0.05436738
180	0xbdd6b695	-0.104840435
181	0x3e334ce9	0.17509808
182	0x3d88ab6e	0.066733226
183	0xbe11f73e	-0.14254472
184	0x3de4b81a	0.11167927
185	0xbdcc184b	-0.09965571
186	0x3d16e490	0.036839068
187	0x3de06236	0.10956232
188	0x3e0cb5ed	0.13741274
189	0x3d6fcabc	0.058542952
190	0xbd95708a	-0.07296856
191	0xbd734238	-0.059389323
192	0xbddb1e72	-0.10699166
193	0x3e3d260f	0.1847155
194	0xbde0a5b6	-0.10969107
195	0x3e1f633b	0.15565197
196	0xbe11c8a6	-0.14236698
197	0xbe17d7ee	-0.14828464
198	0xbe0d9fec	-0.13830537
199	0xbd28fa68	-0.04125443
200	0xbdeeb128	-0.116548836
201	0xbe0b09e6	-0.13577995
202	0xbe37e7c4	-0.17959505
203	0xbb4c0800	-0.0031132698
204	0xbdf61430	-0.12015569
205	0x3dbe4656	0.09290759
206	0xbde57e67	-0.1120575
207	0x3d529b90	0.051417887
208	0x3ca7a268	0.020463184
209	0x3e0d9335	0.13825686
210	0x3e2a25d3	0.16615991
211	0x3e3fdc8f	0.1873648
212	0x3d8162a2	0.06317641
213	0xbd130cc0	-0.03590083
214	0x3e318491	0.17335726
215	0xbe218761	-0.15774299
216	0x3d824652	0.06361069
217	0xbe288d80	-0.16460228
218	0xbd34a070	-0.044098318
219	0xbdbe0b80	-0.09279537
220	0x3d8eb65e	0.069683775
221	0xbdf9da3c	-0.12199828
222	0x3d05f904	0.032708183
223	0xbe38751b	-0.18013422
224	0xbe247647	-0.16060744
225	0x3e38e051	0.1805432
226	0xbd2c71a4	-0.042100564
227	0x3d9ee0be	0.0775771
228	0xbcb22a70	-0.021748751
229	0xbe2b89cc	-0.16751784
230	0x3d3a8048	0.045532495
231	0x3d66c928	0.05634418
232	0xbd9a99c8	-0.07548863
233	0x3c5c1620	0.013433009
234	0xbb959320	-0.004564658
235	0xbdffb4df	-0.1248567
236	0xbdba1db4	-0.09087697
237	0x3d362f50	0.044478714
238	0xbd4e50ac	-0.050369903
239	0x3df9794a	0.12181337
240	0xbc9654d0	-0.018350989
241	0xbcc899f8	-0.02448748
242	0xbe14b190	-0.1452086
243	0x3d7c291c	0.061562642
244	0x3e1b77bf	0.15182398
245	0xbd1de450	-0.038547814
246	0x3cd7a350	0.02632299
247	0xbe30deb4	-0.17272455
248	0x3d0982cc	0.033572003
249	0xbe1ae7d2	-0.15127495
250	0xbab9ca00	-0.001417458
251	0xbd8cd7f8	-0.0687713
252	0xbd84f228	-0.064915
253	0x3e341531	0.17586209
254	0x3da434aa	0.080178574
255	0x3cbe8f80	0.023261786

item_att_model.fc1.bias f4 [64]
0	0x00000000	0.0
1	0x00000000	0.0
2	0x00000000	0.0
3	0x00000000	0.0
4	0x00000000	0.0
5	0x00000000	0.0
6	0x00000000	0.0
7	0x00000000	0.0
8	0x00000000	0.0
9	0x00000000	0.0
10	0x00000000	0.0
11	0x00000000	0.0
12	0x00000000	0.0
13	0x00000000	0.0
14	0x00000000	0.0
15	0x00000000	0.0
16	0x00000000	0.0
17	0x00000000	0.0
18	0x00000000	0.0
19	0x00000000	0.0
20	0x00000000	0.0
21	0x00000000	0.0
22	0x00000000	0.0
23	0x00000000	0.0
24	0x00000000	0.0
25	0x00000000	0.0
26	0x00000000	0.0
27	0x00000000	0.0
28	0x00000000	0.0
29	0x00000000	0.0
30	0x00000000	0.0
31	0x00000000	0.0
32	0x00000000	0.0
33	0x00000000	0.0
34	0x00000000	0.0
35	0x00000000	0.0
36	0x00000000	0.0
37	0x00000000	0.0
38	0x00000000	0.0
39	0x00000000	0.0
40	0x00000000	0.0
41	0x00000000	0.0
42	0x00000000	0.0
43	0x00000000	0.0
44	0x00000000	0.0
45	0x00000000	0.0
46	0x00000000	0.0
47	0x00000000	0.0
48	0x00000000	0.0
49	0x00000000	0.0
50	0x00000000	0.0
51	0x00000000	0.0
52	0x00000000	0.0
53	0x00000000	0.0
54	0x00000000	0.0
55	0x00000000	0.0
56	0x00000000	0.0
57	0x00000000	0.0
58	0x00000000	0.0
59	0x00000000	0.0
60	0x00000000	0.0
61	0x00000000	0.0
62	0x00000000	0.0
63	0x00000000	0.0
